saved_results/gastric-gcnconv-with-mRNA/0/ckpt/epoch=299-step=300.ckpt (torch, 11866 bytes, 15 tensors)

model.pre_mp.Layer_0.layer.model.weight f4 [10, 2]
00000000: 6fed 06be f15c d83e fbcf 86be 60ea 05bd
00000010: 56b9 8f3e ccc1 62be 31f8 fb3e 6e5b 003e
00000020: b055 5c3f 91f8 ec3e 4967 14be 85a7 8bbe
00000030: 018c c6b5 1ab9 882f 9637 debc 0da6 bc3c
00000040: ec34 c2be 042f a4be d521 79bc 052f afbe
-0.13176511 0.4225841 -0.26330552 -0.03269422 0.28071088 -0.2214424 0.49212793 0.12534878
0.8606825 0.4628339 -0.14492525 -0.27276245 -1.4792896e-06 2.4869778e-10 -0.027126115 0.023028398
-0.37931 -0.3206712 -0.01520582 -0.3421556

model.pre_mp.Layer_0.layer.model.bias f4 [10]
00000000: a8cb 27be 8b1e a83e 4040 a43e 5d16 01be
00000010: f2b2 d1be 3686 013f 21ee 68be f110 763e
00000020: c7b3 33bd e627 d6bd
-0.16386282 0.32835802 0.3208027 -0.12606187 -0.40956837 0.50595415 -0.22747089 0.240299
-0.04387262 -0.10456829

model.mp.layer0.layer.model.bias f4 [10]
00000000: a8a9 c0bd 320d 093e dd47 e33c b41d 31be
00000010: 7e3f 42be eaad 0e3d 3f50 353d 90a6 8f3d
00000020: 2ba4 f23d 8475 1bbd
-0.09407359 0.1338394 0.027744228 -0.17296487 -0.18969533 0.034833826 0.04426598 0.07014191
0.11847719 -0.03795387

model.mp.layer0.layer.model.lin.weight f4 [10, 10]
00000000: 5276 443e 6903 1cbe 0bff 193c 8e9e 18be
00000010: 4d95 54be 95e4 9a3d de01 743e a21a 6b3e
00000020: 774e 46be 3423 1f3e a644 193e b570 e5bc
00000030: 50c2 7b3e f103 3ebe da7e 0cbf a18c c3bc
00000040: f5b4 95bb c8b8 4a3e 3091 63ae de26 1fbd
00000050: 2c1e 993e 17e7 8d3e 1e07 0a3d b414 19bf
00000060: 12c7 57bc 0697 2a3f f719 90bb 09a8 d4be
00000070: 43de e72e 2cc4 28ba d2d3 243f db3e 8a3e
00000080: 5fd0 8c3e 7a1f b83d f967 f1bd 238a 8fbe
00000090: df67 2ebe 4917 293d 73ac 80bd cd55 363d
000000a0: 502d f23e 8bf2 0e3e f38b ac3e 099b 213e
000000b0: 26e4 efbe 9c0f 3bbe 2ba0 423e 7014 513e
000000c0: a163 3abe baf4 8ebe 9c06 a33d 9fc2 af3e
000000d0: 6e56 ba3d 5613 87bd 69bc 36be c8c3 f5bd
000000e0: 773c 483e 1d15 2cbd 5151 753e 35fc ca3d
000000f0: f6ff 9c3e dcf0 6b3e b047 40be 7acc 3a3e
00000100: 560f 1dbf ade5 083f d297 e83a 0346 883e
00000110: 071c 9cbd 8d8b 41be e91c bb3d e977 2e3e
00000120: 2a7e aebd 5ad9 8cbe 61dc ccbd 880e 963e
00000130: e3dc 8a3e 7fb4 87be 7776 39bd 0712 103d
00000140: b64b 0e3e 1359 e03e 55ca c8be 8b94 9d3b
00000150: 4d51 02bf 70fe ae3d f1af 643e e673 e83d
00000160: baae 823e 1026 d12d a8e6 a93d 139d 1ebe
00000170: cacb 67bc 3ee6 cc3e 184d d83c 7f7c ccbb
00000180: c292 91b8 b4ab 8bbe 13ce 44be eeb2 913e
0.1918576 -0.15235676 0.009399186 -0.14904234 -0.20760079 0.0756313 0.23828837 0.22959378
-0.1936587 0.15540773 0.14967594 -0.028007844 0.24585843 -0.18556191 -0.5488106 -0.023870768
-0.004568691 0.19797051 -5.1742777e-11 -0.038855426 0.29905832 0.2771537 0.033698194 -0.59797215
-0.013170021 0.66636693 -0.0043976265 -0.4153445 1.05441454e-10 -0.00064379233 0.6438571 0.2700108
0.27502725 0.08990379 -0.11787409 -0.28035077 -0.17031811 0.041281972 -0.06282892 0.04451542
0.47300196 0.1395971 0.33700523 0.15781797 -0.4685375 -0.18267673 0.19006412 0.20417953
-0.18202068 -0.27921087 0.07960245 0.34328172 0.090985164 -0.06595485 -0.1784531 -0.12000233
0.19554316 -0.042012323 0.23956801 0.09911386 0.30664033 0.230411 -0.18777347 0.18242064
-0.61351526 0.5347546 0.0017745441 0.26615915 -0.07622533 -0.1890089 0.091363735 0.1703793
-0.08520158 -0.27509576 -0.100029714 0.2930796 0.27121648 -0.26504895 -0.045278993 0.035173442
0.13896069 0.43817958 -0.39216867 0.0048089675 -0.50905305 0.08544624 0.22332741 0.11350231
0.2552393 2.3777452e-11 0.08295947 -0.15489607 -0.014147708 0.4001941 0.026403949 -0.006240427
-6.9414746e-05 -0.27279437 -0.19219236 0.28456825

model.post_mp.layer_post_mp.model.0.model.weight f4 [1, 10]
00000000: 5334 9c3d ad9a 01bf 3037 febe 2ff1 213f
00000010: 6dd2 973e 7a31 a3be 6e02 cdbe b85d b1be
00000020: b0cf e2be ca8c b73e
0.076271676 -0.5062664 -0.4965148 0.6325864 0.2965273 -0.31873685 -0.40040916 -0.34641814
-0.44299078 0.358496

exp_avg f4 [10, 2]
00000000: 70b9 143a f56d 763b 6ce1 2d3b e0ed 81bb
00000010: 4039 373b 8d12 3e3b 32c9 41bb bb62 8a3b
00000020: 4311 0aba 7d8b f33a b265 123a e15f ddba
00000030: c1cc 14b0 63b2 33a7 bced a53b d4fb 223c
00000040: 73ea 4ab9 7207 2cb9 d589 10b7 7859 37b9
0.00056733843 0.003760216 0.0026532067 -0.0039651245 0.0027957708 0.0029002756 -0.0029569385 0.0042231954
-0.00052668544 0.0018581 0.0005584612 -0.0016889536 -5.413306e-10 -2.4937944e-15 0.0050637405 0.009947736
-0.0001935156 -0.00016405972 -8.61516e-06 -0.0001748557

exp_avg_sq f4 [10, 2]
00000000: f6e2 3f35 210b 4137 cba5 1236 4884 3b37
00000010: e5c9 c935 dcbb dd36 e7a5 0b37 31f6 b238
00000020: 9a18 6835 ecbb 3d37 0e2a cb35 5136 ca35
00000030: 3f80 5e2e 81a8 1a27 1eee 9a36 ebee 3a38
00000040: c7cd 8e32 b158 5d32 51c1 1a30 feff 7332
7.1483316e-07 1.1506288e-05 2.18522e-06 1.1176868e-05 1.5034426e-06 6.608183e-06 8.323673e-06 8.533558e-05
8.6462535e-07 1.1309032e-05 1.5136918e-06 1.5065981e-06 5.059086e-11 2.146314e-15 4.617278e-06 4.4568365e-05
1.6624552e-08 1.2884059e-08 5.629959e-10 1.42026675e-08

exp_avg f4 [10]
00000000: d71a 0f3b 4d1e 0dbb 288f 1f3b ba9f 953b
00000010: 4482 103a 9db7 a239 1bb1 f5b8 c23a 483b
00000020: ee30 c7b7 706a 66b8
0.0021836066 -0.0021532953 0.0024346802 0.00456616 0.0005512575 0.0003103585 -0.00011715499 0.00305526
-2.3745433e-05 -5.49354e-05

exp_avg_sq f4 [10]
00000000: 4c6e 2636 066a 6a36 2dcf 1236 8c7f 9537
00000010: f735 2836 6ed3 9936 7302 0732 9c16 3737
00000020: 71a7 aa30 ed13 4b31
2.4800129e-06 3.493043e-06 2.1876288e-06 1.7821578e-05 2.5065362e-06 4.584369e-06 7.858591e-09 1.0912914e-05
1.2416718e-09 2.9551714e-09

exp_avg f4 [10]
00000000: 3dcc 8939 a147 063b f757 f7bb d666 253b
00000010: fdb8 423a df41 3a3b c067 5c3a 7832 c6b9
00000020: ff1b 7dba bbbe 073b
0.00026282846 0.0020489471 -0.007548328 0.0025238297 0.0007428078 0.002842061 0.0008407794 -0.00037803105
-0.0009655356 0.002071305

exp_avg_sq f4 [10]
00000000: 37d8 8a36 d83e 4537 144f b139 900c 4d38
00000010: 08da 7437 8d16 2e37 22f5 5d38 b6fb d636
00000020: c5f1 6c37 b0f3 4538
4.137891e-06 1.1756747e-05 0.0003381899 4.888751e-05 1.4594298e-05 1.0376459e-05 5.2918804e-05 6.407e-06
1.41229875e-05 4.719541e-05

exp_avg f4 [10, 10]
00000000: 6f9d 2439 5520 63b8 3faf c138 af81 8fb8
00000010: 0fcf 8ab8 a256 3739 fe8f 0039 fd3a 9439
00000020: d5ea d1b8 0b5b a938 110f ba39 6b4c e2b8
00000030: 2047 8c39 2e40 073a 48b1 18b8 c2d7 aab8
00000040: 37f7 38b6 3c7f 8e39 8906 b82b 8340 b1b7
00000050: fc66 ea39 901a 2cba 0fad 03ba 858d 01ba
00000060: ddd4 d331 fbaf 0a38 a56d 32b6 d3a6 49ba
00000070: 6c1e 37a7 2736 edb4 1a87 4eb6 f7b3 d43a
00000080: 1d1c dd3a 53d6 73b8 09fa 95ba 1243 1f3a
00000090: 382e b9b8 a12c 9a3a e0c0 0cb8 19ff c937
000000a0: 2b18 c839 1417 023a ff85 1d3a cd98 acb7
000000b0: 6482 d6b8 d1e9 86b7 361c ce38 c58d ec39
000000c0: 8a96 c5b8 cd2a 16b9 e297 0f3a a80b e239
000000d0: e0c4 e636 9a17 ed39 f992 233a 530e e639
000000e0: b1e9 d338 9cec 6639 103d 0139 d4bf 5a38
000000f0: 574f e83a f5bf 6238 60f7 c9b8 556f b93a
00000100: 5070 ba3a a7b1 053a 9b34 9835 125f 373a
00000110: 6fa4 29b8 10fe ccb8 3e60 0bb9 4472 53b9
00000120: 4376 85b9 c31a cdb9 e705 edb6 218c bc38
00000130: eff2 1139 1665 bfb9 d053 cdb7 f918 a137
00000140: 3439 4f3a 84f2 18ba f885 b2ba 3a04 053a
00000150: 3997 9b39 0778 94ba a44f f138 e24b 00ba
00000160: ee83 0939 eb0b 2a29 ab60 9e38 ae36 8c39
00000170: 39c1 9237 f10b 6f39 4919 c339 0ddf b439
00000180: 1cf9 7cb3 c82b 37b9 485d d0b8 54fe 1839
0.00015698907 -5.415113e-05 9.235599e-05 -6.842927e-05 -6.6189205e-05 0.00017484513 0.00012260673 0.0002827271
-0.000100096375 8.075506e-05 0.0003548791 -0.00010790754 0.00026755873 0.0005159405 -3.640473e-05 -8.14642e-05
-2.7562035e-06 0.00027179148 1.30758e-12 -2.1130085e-05 0.00044708687 -0.00065652374 -0.0005023041 -0.00049420475
6.165108e-09 3.306566e-05 -2.6587888e-06 -0.00076924 -2.5412843e-15 -4.418409e-07 -3.0775032e-06 0.001622795
0.001686934 -5.813532e-05 -0.0011442314 0.0006075363 -8.830096e-05 0.0011762568 -3.355823e-05 2.4079856e-05
0.0003816498 0.00049625454 0.00060090417 -2.0575151e-05 -0.00010228602 -1.6082924e-05 9.8281e-05 0.00045119054
-9.421732e-05 -0.0001432106 0.00054776494 0.00043114764 6.8774534e-06 0.00045221747 0.0006239857 0.0004387969
0.000101047925 0.00022022653 0.00012325146 5.2153904e-05 0.001772384 5.4061373e-05 -9.630504e-05 0.0014147559
0.0014224146 0.00051000196 1.1340193e-06 0.00069950626 -4.044588e-05 -9.774801e-05 -0.00013291926 -0.00020165095
-0.0002545585 -0.00039120586 -7.0638375e-06 8.9906396e-05 0.00013918777 -0.00036505674 -2.4476933e-05 1.9204324e-05
0.0007904947 -0.00058344775 -0.0013620248 0.0005074177 0.00029676573 -0.0011327275 0.0001150661 -0.000489412
0.00013114486 3.775792e-14 7.552033e-05 0.0002674362 1.7494533e-05 0.00022797265 0.00037212137 0.0003449846
-5.8899886e-08 -0.0001746855 -9.935588e-05 0.00014590594

exp_avg_sq f4 [10, 10]
00000000: 7321 ef34 1932 e232 9235 3634 80be 6a33
00000010: 7786 de34 85d4 b232 1409 1032 035e 8f34
00000020: b3f6 d831 f116 a331 5a6c ab35 d050 c333
00000030: 3f44 de34 ff1b 9034 d4d7 c435 3295 4834
00000040: 2e20 a22f c89c fb34 0d3c 832b 8ac8 9930
00000050: bbf8 0c38 f706 a735 1c98 bd36 5f2b 1e37
00000060: c4f1 6038 cba3 9335 e559 9f2f f0e5 3537
00000070: c5a9 c125 6226 202f 5820 a936 d792 1f35
00000080: 42fe b435 850e af35 b7aa 1137 a2b8 0135
00000090: 9450 b731 d2e8 d635 fab4 ed30 14d7 ac30
000000a0: 75c5 4535 7284 2f34 f24d 4135 d2ca eb33
000000b0: 7d09 3c35 15b1 d633 9a9f d331 1fbb 2735
000000c0: d6e1 c731 528b 3432 ff07 3135 7e43 7a33
000000d0: 54e7 0134 9f6a 6c34 8137 9635 5b8d 5a33
000000e0: 50c9 db31 d3e4 8334 d61e 1132 cf38 3f31
000000f0: 73c4 d636 3d4a 3034 de21 9435 9e68 bb35
00000100: b88e fb36 bc53 1234 9a45 5d2f 9152 1036
00000110: 5146 1031 0c11 d231 6d68 b934 16e9 1233
00000120: 7a5f 7433 27ff 0134 7f86 2f35 6fd7 0633
00000130: 311e 2d32 8582 1534 c771 af30 349b 8d30
00000140: cc59 0d36 d8df fd33 235a c034 a2b9 de34
00000150: 1892 1436 e178 7534 209f 0332 09e1 1335
00000160: 4fb4 1e32 ce8a d427 c883 5736 6424 2634
00000170: 1814 5635 0e27 7a35 4f7f b436 0d88 3234
00000180: fd9a c32e 24ec c535 3ac7 d631 b499 3932
4.4541557e-07 2.6332645e-08 1.696956e-07 5.465563e-08 4.1448558e-07 2.081857e-08 8.383967e-09 2.6704228e-07
6.314474e-09 4.7465325e-09 1.2772027e-06 9.095095e-08 4.1400378e-07 2.684246e-07 1.4665952e-06 1.8680728e-07
2.9490493e-10 4.6866467e-07 9.324777e-13 1.1189212e-09 3.361025e-05 1.2444497e-06 5.650347e-06 9.427632e-06
5.3630924e-05 1.1000024e-06 2.8985805e-10 1.0841977e-05 3.3595203e-16 1.4565552e-10 5.040358e-06 5.9445796e-07
1.3485044e-06 1.3042742e-06 8.682421e-06 4.832492e-07 5.3351616e-09 1.6012002e-06 1.7295456e-09 1.2575776e-09
7.3675557e-07 1.6346328e-07 7.201153e-07 1.0979933e-07 7.0049265e-07 9.9973626e-08 6.159053e-09 6.2484645e-07
5.817337e-09 1.0509057e-08 6.5949274e-07 5.8269045e-08 1.2098218e-07 2.2018001e-07 1.1192025e-06 5.0885642e-08
6.3966255e-09 2.4567143e-07 8.447122e-09 2.782645e-09 6.4005667e-06 1.6418285e-07 1.1036716e-06 1.3963033e-06
7.4969976e-06 1.3627772e-07 2.012456e-10 2.1505732e-06 2.0994728e-09 6.1137424e-09 3.4534915e-07 3.4205264e-08
5.6897512e-08 1.2106885e-07 6.53883e-07 3.1395242e-08 1.007679e-08 1.3924189e-07 1.2765263e-09 1.0303212e-09
2.1062906e-06 1.18219475e-07 3.582837e-07 4.1485788e-07 2.2138756e-06 2.2861379e-07 7.661384e-09 5.5089237e-07
9.237808e-09 5.8992313e-15 3.2114203e-06 1.5473194e-07 7.975045e-07 9.318909e-07 5.3792387e-06 1.6627037e-07
8.895105e-11 1.474637e-06 6.250869e-09 1.0803365e-08

exp_avg f4 [1, 10]
00000000: a005 b3bb 117c 753c 129f 233c 2e69 8fbc
00000010: 4fb7 3ebc a6ba 423c 52cb ec3b 6e4a e53b
00000020: ac1e e33b b664 3cbc
-0.005463317 0.014983193 0.009986656 -0.017506208 -0.011640384 0.011885321 0.007226386 0.006997398
0.0069311466 -0.011498621

exp_avg_sq f4 [1, 10]
00000000: 1658 1438 a3cc 3238 f104 9737 c3df 7138
00000010: 245c 6838 b164 fb37 d017 2b37 6f23 e436
00000020: 350e 0a37 060d a037
3.5367986e-05 4.262909e-05 1.8002904e-05 5.7667272e-05 5.5398923e-05 2.996842e-05 1.01979385e-05 6.7990545e-06
8.228749e-06 1.907955e-05
