saved_results/gastric-graphsage-soft-label/0/ckpt/epoch=99-step=9600.ckpt (torch, 13966 bytes, 18 tensors)

model.pre_mp.Layer_0.layer.model.weight f4 [10, 1]
000000 88 ea b2 3b 3d 33 a7 bd 2c 6b 0d be 22 9d 8a 3e
       0.005460087 -0.0816407 -0.13810414 0.27073008
000010 66 a4 98 be 7c 8d 0a 3e d1 1f dc bc c4 07 53 3e
       -0.29812926 0.13530535 -0.02687064 0.20608431
000020 29 69 57 be d5 ea 7c ba
       -0.21036209 -0.000964803

model.pre_mp.Layer_0.layer.model.bias f4 [10]
000000 e5 a4 0a bc 2e 43 a5 3d 8f 7d 0d 3e 1e 64 9b bd
       -0.0084621655 0.08069454 0.13817428 -0.07587455
000010 16 5c 98 3e 4c cf 92 bd 2e 60 a8 3c 6f d4 12 3b
       0.29757756 -0.07168445 0.020553675 0.0022404452
000020 17 0c cc 3e 8d 77 fd b8
       0.39852974 -0.00012086248

model.mp.layer0.layer.model.lin_l.weight f4 [10, 10]
000000 d8 86 cb 03 c4 35 41 84 28 2c 35 04 be a5 12 04
       1.1962226e-36 -2.2711729e-36 2.1296723e-36 1.7238323e-36
000010 10 da 0c 06 8b ef ad 84 ef 2e e9 04 f1 5b 7d 85
       2.649128e-35 -4.089209e-36 5.482114e-36 -1.191289e-35
000020 6a 90 62 85 98 4e 07 80 b3 65 18 38 b4 1c 51 bc
       -1.06529936e-35 -6.71043e-40 3.633434e-05 -0.012763191
000030 88 93 bc bc bc 3a 8d 3d 85 74 48 bd 5a 42 b6 3c
       -0.023019567 0.06895968 -0.048939247 0.022248436
000040 fd 78 71 bb 68 40 97 3d 8a 7a 88 bc bf 81 fc b1
       -0.0036845796 0.073853314 -0.016659994 -7.3489157e-09
000050 93 f1 66 ae e1 b0 18 3c ee a3 92 3c fc 7f 0b bd
       -5.2510506e-11 0.009319515 0.017900433 -0.034057602
000060 02 47 24 3d ae 61 09 bc f0 7f 01 3b eb b0 2a bd
       0.04010678 -0.008385105 0.0019760095 -0.04167263
000070 d2 ed 97 3c fd ab b7 8f 32 ec c0 3b 04 a9 fa bc
       0.018546019 -1.811144e-29 0.0058875317 -0.030598171
000080 e4 cf 8d bd 4d 19 96 3d dd 3d 16 be 51 51 0f 3d
       -0.069244176 0.073290445 -0.14672036 0.03498966
000090 12 11 87 bc 2e 00 74 3d 30 24 78 3d 4a ad ec b9
       -0.016487632 0.059570484 0.060581386 -0.00045142538
0000a0 ff 6d 10 39 e2 9a 6d bc 40 db d8 bc e6 dc 95 3d
       0.00013773887 -0.014502259 -0.026471734 0.07317524
0000b0 c5 1d 48 bd 25 c1 c7 3c 81 73 91 bb 65 98 9b 3d
       -0.048856515 0.02438409 -0.004438818 0.07597426
0000c0 d7 9f 8d bc 6d e4 69 b4 16 38 86 37 01 e4 79 bc
       -0.017288132 -2.1782917e-07 1.6000162e-05 -0.015252114
0000d0 9e e6 e3 bc 3f 0c 8b 3d 3e ee 64 bd 96 c7 ad 3c
       -0.027819928 0.06789445 -0.055891268 0.021213334
0000e0 c9 dc 89 bb 1b 38 95 3d 8f 59 86 bc d1 d5 04 b1
       -0.004207228 0.07286092 -0.016400127 -1.9330069e-09
0000f0 88 bc 12 38 ab 2f e0 bb 33 1a dc bb 37 29 3d bb
       3.4984696e-05 -0.00684162 -0.0067169904 -0.0028863677
000100 ff 14 43 3b cb 5a d8 b9 ca 2d 73 bb a6 a9 7f 3c
       0.0029767153 -0.00041266377 -0.003710615 0.015604412
000110 23 16 3a 3c b3 60 17 b5 14 14 25 39 ed 54 99 bc
       0.011357817 -5.63926e-07 0.00015743106 -0.018717254
000120 51 eb ed bc f2 92 9c 3d 74 e6 46 bd 85 2b 06 3d
       -0.029042872 0.07645215 -0.04855962 0.032756347
000130 4d e5 c5 bb 28 44 6c 3d 0e 13 bf bc 8b f6 17 35
       -0.0060392977 0.057682186 -0.023324516 5.661065e-07
000140 fc 68 71 a5 27 11 4c 3b ae c4 01 3c 9d dc b5 bc
       -2.0938988e-16 0.0031138153 0.007920427 -0.022199923
000150 15 5d b2 3c 4e 83 d2 bb 22 9b b5 b8 60 9d e1 bc
       0.0217729 -0.006424344 -8.659648e-05 -0.027540863
000160 51 65 0d 3c 31 7a 00 00 e9 e1 04 ab ee f5 f3 3b
       0.008630113 4.3834e-41 -4.7209334e-13 0.0074450886
000170 c1 78 6f 3c ac 44 e5 bc 62 f9 09 3d 8b 5f e0 bb
       0.014616192 -0.027986847 0.033685096 -0.006847327
000180 df 1c ae 3a 96 e0 0c bd bc 12 84 3c 5c 23 41 82
       0.0013283751 -0.03439387 0.016122214 -1.4189548e-37

model.mp.layer0.layer.model.lin_l.bias f4 [10]
000000 37 0a 67 a3 c8 2d c5 3c c0 64 67 3d f7 2d 55 bd
       -1.2524698e-17 0.024069682 0.056492567 -0.05204579
000010 49 a5 34 3d ba 35 ad bd 75 de 25 3d bf 3f 85 bc
       0.04410294 -0.08457513 0.040495355 -0.016265748
000020 d8 1f 20 3c aa d9 3f bc
       0.009773217 -0.01170961

model.mp.layer0.layer.model.lin_r.weight f4 [10, 10]
000000 80 a7 14 02 58 03 05 04 db ac e0 04 da 6e 11 08
       1.0921393e-37 1.563561e-36 5.282089e-36 4.3764656e-34
000010 ff 8e 48 05 60 38 a5 06 bc 33 37 84 f4 84 9d 09
       9.430219e-36 6.214894e-35 -2.1535302e-36 3.7921404e-33
000020 0d 3d ed 88 32 28 02 00 dd 34 89 3b 2a f4 25 3c
       -1.4278272e-33 1.9809e-40 0.00418721 0.010129014
000030 39 60 dd bc 33 cb 73 bd ad 40 87 bd 2c 0b 38 bd
       -0.027023422 -0.059519958 -0.06604133 -0.04493253
000040 79 03 96 3c 49 43 09 bc d4 d8 8f 3d da 58 fa b9
       0.018312203 -0.008377858 0.070237786 -0.00047749915
000050 76 aa b2 b9 06 81 9e 3c be 1e 14 3d b3 1f b4 bd
       -0.0003407781 0.019348633 0.03616213 -0.08795109
000060 22 19 09 3d 8c 08 07 ba f5 11 79 3c 77 09 06 be
       0.033471234 -0.0005151115 0.015202035 -0.13089548
000070 6d 65 d1 bc f1 30 2f 36 cc 7c 9f bc f0 a5 f4 bc
       -0.025561059 2.610552e-06 -0.019468687 -0.029864281
000080 de 1e 5a 3c f1 cc 32 be df a7 0d be 68 6b 59 bd
       0.013313023 -0.17460991 -0.13833569 -0.053080946
000090 1e 47 75 39 cf 66 0e 3e 30 fe 60 3e 96 b1 af 3b
       0.00023391514 0.13906406 0.21971965 0.005361746
0000a0 cc e6 f7 3a ec 92 04 3c e5 16 57 3d 8b 4a 31 bd
       0.0018913387 0.0080916695 0.05251207 -0.04328398
0000b0 78 30 12 bd 9a 48 39 bd 79 ea 3d 3c 7b 09 68 3c
       -0.035690755 -0.045235254 0.011591547 0.014162417
0000c0 e1 3f e1 bb 5a 81 31 ba ac ea dd 3a 45 40 2f 3c
       -0.00687407 -0.0006771289 0.00169309 0.010696475
0000d0 70 68 35 3c 3e 37 c8 bc cb 30 56 bb b2 ac 07 bd
       0.011072263 -0.024440404 -0.0032682891 -0.03312368
0000e0 50 51 4b 3a 8c 88 40 3d 2d db 24 3e d3 9d 13 b9
       0.0007755952 0.04700522 0.16099234 -0.00014077807
0000f0 f7 d8 f3 bb b1 09 1f 3d ed d4 cb 3d a8 76 25 be
       -0.0074416357 0.0388276 0.09952722 -0.16158545
000100 e4 74 49 3e 50 0d aa bd db 32 7b bb 2b 01 a2 bd
       0.19673496 -0.083033204 -0.0038329873 -0.07910379
000110 ac a0 45 3e f8 4c 49 39 50 90 dc 3a b1 7c 99 3b
       0.19299573 0.00019197527 0.0016827676 0.004684054
000120 3c 45 33 bb 57 5a 59 3d f2 d9 e7 bc d5 df 1c 3d
       -0.00273545 0.05306467 -0.028302167 0.0382994
000130 ec 8c f8 ba 14 d6 8d 3d 6a ca 56 bd 45 f1 ad 2a
       -0.0018962896 0.06925598 -0.05243913 3.0898388e-13
000140 b1 51 71 b4 59 bd 59 3c b8 5e ce 3c 2b 2b 5e bd
       -2.2474593e-07 0.013289773 0.02519165 -0.054240387
000150 f9 e2 42 3d 84 44 5c ba f7 48 1d 3c 98 2e a7 bd
       0.04757974 -0.00084025436 0.009599916 -0.08163184
000160 e0 e1 51 b9 0f 84 6d 30 77 c1 0d b8 34 ab 90 3c
       -0.00020015938 8.6407764e-10 -3.3797198e-05 0.017659761
000170 f2 fb f7 3c 5b 6e 89 bd d2 d3 5b 3d 12 85 1a 3a
       0.030271504 -0.06710502 0.053668804 0.0005894463
000180 45 66 4f 3c c4 e8 cf bd 65 d9 07 3d 9d cb d7 34
       0.01265866 -0.101518184 0.033166308 4.019502e-07

model.post_mp.layer_post_mp.model.0.model.weight f4 [1, 10]
000000 12 22 2d 04 fb c7 35 3f 34 2b 99 be c1 34 04 40
       2.0351697e-36 0.7100827 -0.29915774 2.0657198
000010 6d 5a 54 3f 50 76 12 3f d4 46 0b bf 14 b9 d7 3f
       0.8295048 0.5721178 -0.5440495 1.6853356
000020 bd 90 44 be da cb 7b be
       -0.19195838 -0.24589482

exp_avg f4 [10, 1]
000000 5b 9c 38 36 b9 06 6d 3a 44 32 99 3a ea f0 ed 3a
       2.7509147e-06 0.0009041834 0.0011687954 0.0018153463
000010 b2 ca 97 3b 61 8b 13 3a d1 99 18 b8 0e a1 df ba
       0.0046323175 0.0005628374 -3.6382877e-05 -0.0017061548
000020 2a d7 99 ba 17 1c 04 b5
       -0.0011737098 -4.921471e-07

exp_avg_sq f4 [10, 1]
000000 a0 37 ea 34 a8 e9 3c 37 06 ce b2 37 53 c6 41 38
       4.362637e-07 1.1260076e-05 2.131519e-05 4.619949e-05
000010 85 1b 80 39 6e 58 53 37 8c 2b 2a 35 53 35 7c 38
       0.00024434566 1.2597169e-05 6.3393304e-07 6.0131144e-05
000020 1e f7 92 38 d5 97 8c 33
       7.007852e-05 6.546876e-08

exp_avg f4 [10]
000000 fe ec 8e b6 11 a4 0f 3b c0 44 03 3b 20 70 2f 3b
       -4.2595193e-06 0.002191786 0.0020029992 0.0026769713
000010 c4 11 44 3c d1 8a 4a 3a 4b 98 f7 b8 cc a4 df bb
       0.011967126 0.0007726374 -0.000118062446 -0.0068250652
000020 b4 20 c3 bb e4 7e 83 b3
       -0.0059548263 -6.123244e-08

exp_avg_sq f4 [10]
000000 98 fd 16 35 35 d1 2a 38 41 86 2c 38 29 bd 8b 38
       5.624838e-07 4.0725998e-05 4.113303e-05 6.66327e-05
000010 ef 72 75 3a a1 73 75 37 12 ec ab 35 7f 5e 92 39
       0.0009363135 1.463006e-05 1.2809198e-06 0.00027917695
000020 9d e7 99 39 98 0f 1f 34
       0.00029355 1.4813702e-07

exp_avg f4 [10, 10]
000000 c9 76 00 80 a9 7b 12 00 55 e5 1d 00 e8 a7 19 00
       -4.2612e-41 1.6974e-39 2.745498e-39 2.356121e-39
000010 75 58 0d 00 66 b1 0a 80 93 06 03 80 00 5a 05 00
       1.225594e-39 -9.81994e-40 -2.77865e-40 4.91463e-40
000020 57 22 34 00 eb 00 00 80 8e 75 a3 32 64 7b 06 b8
       4.787765e-39 -3.3e-43 1.9029155e-08 -3.2063006e-05
000030 e9 e3 6c b8 b0 fb 45 b9 86 c0 f5 b8 e1 71 76 b8
       -5.6479043e-05 -0.00018881145 -0.00011718371 -5.875703e-05
000040 c1 31 e1 b6 4c 32 5a b9 de 82 b7 b9 54 a4 8f ac
       -6.7113147e-06 -0.00020808837 -0.00035001984 -4.0825485e-12
000050 b6 89 10 a9 25 eb 05 38 e8 8e 6b 38 e1 09 d6 38
       -3.209387e-14 3.1928666e-05 5.6161458e-05 0.00010206155
000060 99 65 f6 38 ea 59 02 38 17 aa e0 36 38 8e fa 38
       0.00011749118 3.1078154e-05 6.6955213e-06 0.00011947419
000070 49 77 8a 39 e9 8b fd 88 11 60 48 36 51 90 67 b9
       0.00026410285 -1.5259776e-33 2.985824e-06 -0.00022083639
000080 eb d6 ca b9 9a 71 19 ba b0 d7 57 ba 3a 97 37 b9
       -0.0003868857 -0.0005853415 -0.0008233739 -0.00017508576
000090 56 27 63 b8 cc 88 34 ba b2 91 d2 ba ce 3b 78 b4
       -5.4157652e-05 -0.00068868394 -0.0016065149 -2.3118557e-07
0000a0 e8 3d 99 33 74 88 4d 38 22 8f ab 38 af 9d e6 b8
       7.1358784e-08 4.900289e-05 8.180576e-05 -0.000109966255
0000b0 fe d4 3d 39 6e 2e 25 b8 e8 21 35 37 e3 02 ca b8
       0.0001810379 -3.9382307e-05 1.0796335e-05 -9.632648e-05
0000c0 47 0b 19 39 76 be 01 af 20 7d 11 32 fb 9a 02 b8
       0.00014595418 -1.1800147e-10 8.468561e-09 -3.1138752e-05
0000d0 3a 24 67 b8 63 ec 14 b9 c8 38 eb b8 28 af 39 b8
       -5.510843e-05 -0.00014202441 -0.000112162495 -4.4270564e-05
0000e0 51 6d dd b6 8e ed 25 b9 2a f7 99 b9 93 7b 9a ab
       -6.5990394e-06 -0.00015824122 -0.00029366586 -1.0976657e-12
0000f0 39 4d 9a 32 db 71 f7 b8 1e a9 55 b9 9a 79 b8 b8
       1.7963076e-08 -0.00011799085 -0.00020376264 -8.796454e-05
000100 fe 10 e1 b9 bc f6 e1 b7 24 7b 01 b8 fc cf 34 b9
       -0.00042928004 -2.6936985e-05 -3.087068e-05 -0.00017243618
000110 b7 8a 40 ba 1c ce a2 af a9 6f af 33 94 5e 20 39
       -0.0007344889 -2.9614078e-10 8.1693834e-08 0.00015294022
000120 25 1a 8b 39 f5 56 8a 39 38 b9 16 3a 18 88 af 38
       0.00026531625 0.000263862 0.00057496456 8.37e-05
000130 e7 60 0b 38 82 29 bf 39 c2 f1 8e 3a 63 22 a6 2f
       3.323043e-05 0.00036461285 0.001090579 3.0219657e-10
000140 09 cb 38 a0 2a 4b a3 37 71 0f 12 38 bd 09 8e 38
       -1.5652585e-19 1.9466115e-05 3.4823493e-05 6.7729015e-05
000150 2f 94 9b 38 31 68 ac 37 c5 a6 7f 36 49 09 a6 38
       7.418577e-05 2.0552516e-05 3.8095034e-06 7.917226e-05
000160 e6 43 33 39 18 00 00 00 ed 30 b2 a5 7e fe de 37
       0.00017096064 3.4e-44 -3.091123e-16 2.658297e-05
000170 3d 38 44 38 e2 9e b0 38 a1 e1 cd 38 a2 32 d8 37
       4.6782417e-05 8.421928e-05 9.8171884e-05 2.5772784e-05
000180 48 b1 b8 36 d0 a8 ce 38 0f f6 65 39 4f 24 0a 00
       5.5042656e-06 9.854289e-05 0.00021930806 9.3138e-40

exp_avg_sq f4 [10, 10]
000000 cf b9 9f 28 94 fd 49 2a be 17 db 2a f6 a3 39 2a
       1.7733128e-14 1.7940364e-13 3.891869e-13 1.6488186e-13
000010 99 d3 2d 2b a1 f8 7a 29 40 02 e1 29 35 c8 67 2a
       6.17556e-13 5.5726802e-14 9.9923975e-14 2.0586382e-13
000020 5f 50 7f 2b 4a 43 05 2a 4a 48 61 32 7d 2a 97 34
       9.0705736e-13 1.1836119e-13 1.311316e-08 2.8156856e-07
000030 95 ab 49 35 2c d5 28 35 0f 48 51 36 17 b5 c9 33
       7.512802e-07 6.2895083e-07 3.118537e-06 9.392732e-08
000040 49 40 5d 33 e5 fb 77 35 bf 29 34 37 6c 9f 4d 31
       5.151404e-08 9.2381225e-07 1.0738556e-05 2.9922047e-09
000050 6c 5c 93 30 5e 3a b3 32 7a 38 70 33 a5 ea 9e 33
       1.0721926e-09 2.0864885e-08 5.593072e-08 7.40013e-08
000060 45 4a 7a 34 a8 14 36 32 08 80 73 31 2a ed da 33
       2.3310083e-07 1.0598491e-08 3.5433931e-09 1.0194556e-07
000070 98 73 6a 35 aa cb 73 2f c6 7e 09 34 f6 1b 82 36
       8.7340004e-07 2.2173077e-10 1.2805239e-07 3.877557e-06
000080 dc 13 2c 37 a6 3d ab 36 8a c3 30 38 a1 8e 4b 35
       1.0256623e-05 5.103374e-06 4.214378e-05 7.5830945e-07
000090 b0 51 51 35 16 66 01 37 a4 24 03 39 2d 24 46 33
       7.797744e-07 7.712768e-06 0.00012506783 4.613337e-08
0000a0 07 49 ba 32 fc 08 d0 34 d4 73 8a 35 55 62 6e 35
       2.1686459e-08 3.8749556e-07 1.0315512e-06 8.8805e-07
0000b0 35 39 8f 36 6f b8 12 34 a4 7d 9f 33 8d a9 ae 35
       4.268392e-06 1.3664406e-07 7.4268684e-08 1.3013356e-06
0000c0 94 3d 79 37 1d 9a a5 31 6b ec 19 32 dc 37 4b 34
       1.4855894e-05 4.8196527e-09 8.959527e-09 1.892617e-07
0000d0 55 79 07 35 ae 8b d1 34 91 77 0c 36 e4 f8 7b 33
       5.046798e-07 3.9030914e-07 2.0931222e-06 5.8666856e-08
0000e0 aa e9 17 33 c1 cb 1a 35 16 44 ec 36 fa a9 15 31
       3.5369943e-08 5.766597e-07 7.0412743e-06 2.1778974e-09
0000f0 c5 72 22 33 00 aa b3 35 2a 06 6f 36 d2 10 ee 35
       3.7822947e-08 1.3386016e-06 3.5617363e-06 1.7737277e-06
000100 08 b5 77 37 b2 84 8a 34 1d d0 87 34 f4 ca 37 36
       1.4764497e-05 2.5801052e-07 2.5297132e-07 2.738726e-06
000110 6f 54 3a 38 e1 a7 4a 32 31 10 ab 32 53 d9 48 35
       4.442449e-05 1.1796119e-08 1.9914383e-08 7.4822054e-07
000120 52 e5 04 36 63 46 7e 35 84 b1 09 37 19 9b 0f 34
       1.9803015e-06 9.47248e-07 8.207167e-06 1.3374337e-07
000130 2c 2d 18 34 cb 29 c6 35 f3 3a d0 37 19 60 ee 31
       1.4172537e-07 1.4764313e-06 2.4822983e-05 6.9376367e-09
000140 6d 47 ff 2f d1 76 0f 32 e7 54 c0 32 b4 8b 02 33
       4.643498e-10 8.350711e-09 2.2390351e-08 3.0395043e-08
000150 bc 6d c8 33 a2 3d 95 31 69 70 bf 30 b2 70 33 33
       9.333186e-08 4.3434776e-09 1.3929028e-09 4.177918e-08
000160 6d d6 bc 34 62 d9 b9 2e 59 96 45 30 82 12 6f 32
       3.5173744e-07 8.451441e-11 7.188184e-10 1.3915839e-08
000170 65 36 20 33 35 3f 55 33 e6 fa 26 34 79 4d f3 31
       3.7302375e-08 4.9650414e-08 1.5551231e-07 7.0810384e-09
000180 dd 41 21 31 6c f8 92 33 5b c7 1c 35 5a 85 11 2f
       2.3466022e-09 6.8438425e-08 5.840463e-07 1.3235049e-10

exp_avg f4 [10]
000000 aa 66 4b 9e 98 be aa bb fc ac ef 3a af 36 89 bc
       -1.0767961e-20 -0.005210709 0.0018285806 -0.016749708
000010 0c 49 b4 bb 34 3d 81 bb cf de cd 3b 81 69 51 3b
       -0.005501872 -0.0039440636 0.0062826644 0.0031953754
000020 c5 fb 93 3a ee be c1 3a
       0.0011290243 0.0014781633

exp_avg_sq f4 [10]
000000 58 34 cc 2f 2a aa 5d 39 00 26 aa 37 80 bb da 3a
       3.7144576e-10 0.00021139593 2.0283274e-05 0.001668796
000010 66 3a 95 39 23 a8 0c 39 67 57 b7 39 38 53 ef 38
       0.00028463005 0.00013414076 0.000349696 0.00011411909
000020 55 f9 0b 37 58 f2 65 37
       8.343098e-06 1.3705889e-05

exp_avg f4 [10, 10]
000000 da 30 21 00 bb 8f 05 80 a8 42 05 00 97 02 ed 03
       3.048096e-39 -5.10738e-40 4.83089e-40 1.3930203e-36
000010 cf 5e 02 00 5b 14 2c 80 4b dc 00 00 d4 4b 08 04
       2.17682e-40 -4.048064e-39 7.9026e-41 1.6021542e-36
000020 ce 9d 7a 05 4a 00 00 00 5f 9e 0e 36 dd 1a 36 ba
       1.1783928e-35 1.04e-43 2.1251833e-06 -0.0006946752
000030 63 3b 9e ba 0a 69 e6 b9 41 6a 29 bb b8 41 a3 b8
       -0.0012072142 -0.0004394728 -0.0025850686 -7.784687e-05
000040 88 46 21 b9 14 18 2c ba e7 32 81 bb f4 6c 83 b4
       -0.00015380431 -0.0006564867 -0.0039428356 -2.4479925e-07
000050 8f 28 3e b4 1f c2 8b 39 bb ab ef 39 89 5d 26 38
       -1.7709884e-07 0.00026656777 0.00045713581 3.9664596e-05
000060 38 46 7a 3a 33 bf 40 35 86 cd 8b 38 d2 57 db 38
       0.00095472066 7.1803805e-07 6.666318e-05 0.000104590916
000070 9d da b5 3a 5c 95 c0 30 94 29 24 b7 df 55 09 bb
       0.0013874356 1.4012289e-09 -9.784842e-06 -0.0020955724
000080 b4 92 68 bb f1 38 06 bb da fd fa bb 79 80 d3 b9
       -0.0035487833 -0.0020480717 -0.007659656 -0.00040340776
000090 39 e2 f6 b9 e2 3e 31 bb 19 5c 4c bc b4 75 35 36
       -0.00047089325 -0.0027045538 -0.01247313 2.7039614e-06
0000a0 5d 75 80 35 f6 29 4f ba b2 03 ae ba e9 f4 7a b9
       9.5709e-07 -0.0007902676 -0.0013276248 -0.00023933094
0000b0 af 23 3f bb e9 fa ec b6 de e8 3d b9 54 8a f9 b9
       -0.0029165556 -7.062558e-06 -0.00018111194 -0.00047596043
0000c0 46 a1 8c bb e2 81 b9 b4 86 ae 67 35 40 26 13 ba
       -0.004291686 -3.4553437e-07 8.630817e-07 -0.00056133047
0000d0 7d 82 7b ba aa 83 29 b9 4b 37 08 bb 2b c2 e5 b6
       -0.00095943344 -0.00016166145 -0.002078491 -6.847336e-06
0000e0 2b 4d 08 b9 df a0 a2 b9 b9 e2 42 bb e8 f3 9b b3
       -0.00012998718 -0.00031018906 -0.0029737188 -7.262116e-08
0000f0 53 84 7b b6 5e cb 15 3a a4 5c 82 3a a3 da c7 3a
       -3.7478937e-06 0.0005714203 0.0009945822 0.0015247654
000100 a6 80 04 3b 33 d2 bb 39 72 7b 00 39 dd ea f5 3a
       0.0020218282 0.0003582403 0.00012253018 0.0018762011
000110 48 24 90 3b b8 03 d5 33 6e ab 64 35 d4 9d 4f 38
       0.0043988563 9.919262e-08 8.518608e-07 4.9499635e-05
000120 5b bc c0 38 e2 09 dd 3a 58 78 39 39 23 d2 0c 3a
       9.1903574e-05 0.0016863907 0.00017687806 0.0005371889
000130 04 76 4e b5 10 ae f2 3a 3b 46 f4 3a 71 a9 5a 25
       -7.6912715e-07 0.001851501 0.0018636653 1.8965895e-16
000140 b9 cb 08 af c0 4a 2f 39 d0 66 96 39 ce 0c d4 37
       -1.2441505e-10 0.00016717147 0.0002868683 2.5278332e-05
000150 fc cc 1f 3a 62 45 68 35 4c 61 2f 38 b9 b4 87 38
       0.00060959137 8.65277e-07 4.1813866e-05 6.470964e-05
000160 8b ff 64 3a 9f 1a 0d 2b 3c 0a 99 b2 bd 94 67 39
       0.00087355886 5.0130207e-13 -1.7816198e-08 0.00022085286
000170 f9 e1 c5 39 7f db 11 38 3c ea 51 3a 4b 89 8c 35
       0.0003774313 3.4775116e-05 0.0008007621 1.047077e-06
000180 91 52 67 38 b6 4e b9 38 b3 72 99 3a 37 44 71 2f
       5.5151588e-05 8.8361485e-05 0.0011707157 2.1943057e-10

exp_avg_sq f4 [10, 10]
000000 22 ce 17 2b a8 5b c7 29 c3 5e 30 2a 59 e5 ed 2e
       5.3932043e-13 8.853275e-14 1.5664817e-13 1.08182525e-10
000010 08 56 cf 29 97 e5 d9 2d 6b b4 5a 28 3e 30 f6 2e
       9.207571e-14 2.4772002e-11 1.2140553e-14 1.11953544e-10
000020 67 77 07 2f 33 03 4d 29 12 77 f7 33 41 49 94 36
       1.2320599e-10 4.552192e-14 1.15234926e-07 4.4192716e-06
000030 88 9e 45 37 e8 de 93 36 95 90 4c 38 95 c6 27 35
       1.1779026e-05 4.406891e-06 4.8772043e-05 6.2501323e-07
000040 ea dc 57 35 ff ad e0 36 e9 4d ff 38 79 2a 36 33
       8.0415214e-07 6.695976e-06 0.000121738594 4.2413806e-08
000050 bb cf 9e 32 70 3c 07 35 93 75 b5 35 ae 36 12 33
       1.8488086e-08 5.037937e-07 1.351977e-06 3.4043005e-08
000060 ef ae bc 36 83 1c af 31 a3 be b6 33 86 3c 2c 34
       5.6232016e-06 5.0964117e-09 8.509712e-08 1.6040767e-07
000070 50 50 4e 37 9c 01 ce 31 2e fc 7b 35 33 a3 16 38
       1.2297256e-05 5.995572e-09 9.3871756e-07 3.5914778e-05
000080 5f ba c8 38 9a 7c 3b 38 99 d5 cf 39 84 3a ed 36
       9.5714575e-05 4.470032e-05 0.0003964126 7.0699625e-06
000090 56 b4 db 36 b8 62 83 38 3c d2 7d 3a e3 3a b9 34
       6.5477025e-06 6.2649546e-05 0.00096825114 3.450178e-07
0000a0 48 d9 3e 34 31 86 cd 36 0d b4 88 37 06 54 c3 36
       1.7774175e-07 6.125098e-06 1.6296306e-05 5.8212345e-06
0000b0 79 4a 8d 38 5f c0 68 35 1f 86 99 35 a0 9b 14 37
       6.7372755e-05 8.670667e-07 1.1438423e-06 8.857722e-06
0000c0 9a 7c 2d 39 b7 96 87 33 06 00 96 33 32 ba 41 36
       0.00016544983 6.313842e-08 6.9849236e-08 2.886762e-06
0000d0 d5 0e 01 37 2d da 4b 36 b1 6a 05 38 4b 89 fa 34
       7.6924525e-06 3.0376352e-06 3.1809035e-05 4.6666023e-07
0000e0 6b 2c 0f 35 e3 ba 8d 36 99 de a0 38 b3 21 ee 32
       5.333629e-07 4.223884e-06 7.6708566e-05 2.7722171e-08
0000f0 f3 12 01 35 bf 36 fa 35 ad f3 a6 36 c8 12 83 38
       4.808382e-07 1.8642385e-06 4.975553e-06 6.250065e-05
000100 d0 cb ae 37 16 45 26 37 3e aa af 34 b0 49 9c 38
       2.0837324e-05 9.910456e-06 3.2720158e-07 7.452385e-05
000110 38 f2 25 39 30 1f d8 32 f9 c5 33 34 28 7f ec 33
       0.0001582586 2.5159892e-08 1.6742696e-07 1.1012736e-07
000120 d3 a1 a3 34 4d da ee 37 5d a9 b6 35 85 99 97 36
       3.0478859e-07 2.8473465e-05 1.3609348e-06 4.5180227e-06
000130 d6 cd 2e 32 6e b8 0a 38 92 9a 40 38 c1 f2 8e 30
       1.0174935e-08 3.3073527e-05 4.5920322e-05 1.0400855e-09
000140 be ef 59 31 d3 a9 5e 34 76 24 15 35 36 ca 70 32
       3.1713934e-09 2.0737143e-07 5.5559883e-07 1.4015816e-08
000150 a3 47 1b 36 43 65 7b 30 29 12 16 33 8b 17 8f 33
       2.3138498e-06 9.145717e-10 3.4941113e-08 6.663239e-08
000160 ee ed a9 36 e2 a7 e8 30 42 4e 30 32 fa d6 b6 34
       5.064291e-06 1.6927937e-09 1.0262342e-08 3.4056558e-07
000170 b4 6a 75 35 10 e4 be 32 ac 35 7f 36 e5 43 1e 31
       9.1424886e-07 2.2222622e-08 3.8029202e-06 2.303062e-09
000180 db b8 76 33 48 7f e5 33 69 7b 0b 37 1a c1 8c 31
       5.7444463e-08 1.0686796e-07 8.313779e-06 4.0964894e-09

exp_avg f4 [1, 10]
000000 6f ba 0d 80 2b 58 67 b9 c2 5b bc b9 b3 c7 7e b9
       -1.260741e-39 -0.00022062722 -0.0003592652 -0.00024297721
000010 b8 cb 52 b9 86 7c 9f b9 bb 6e 07 bb 83 a5 07 38
       -0.00020103052 -0.0003041962 -0.0020665366 3.2340653e-05
000020 de 85 7c b9 15 9b 98 b9
       -0.00024082462 -0.00029107244

exp_avg_sq f4 [1, 10]
000000 c8 df 38 2a 0e 28 4d 35 66 ea ba 35 d1 21 ad 35
       1.6420123e-13 7.642674e-07 1.3926299e-06 1.2899346e-06
000010 e6 14 fe 34 9e 3c 71 35 ed 3b 19 38 c2 6d 1a 34
       4.7326392e-07 8.9867706e-07 3.6533853e-05 1.4382297e-07
000020 db 28 2a 35 cc d2 73 35
       6.338939e-07 9.0831304e-07
