saved_results/gastric-graphsage-soft-label/0/ckpt/epoch=99-step=9600.ckpt (torch, 13966 bytes, 18 tensors)

model.pre_mp.Layer_0.layer.model.weight f4 [10, 1]
000000 75 58 76 3d 0b 22 ac bc 76 2f a9 be a9 d2 08 3f
       0.060142953 -0.021012327 -0.33044022 0.5344644
000010 1e 5a 55 3e bb 65 ba b9 ff c1 b6 be 64 3c 0f 3f
       0.20835158 -0.0003555248 -0.35694882 0.55951524
000020 f3 9b 0b b6 db 9c d9 bc
       -2.0803388e-06 -0.026564052

model.pre_mp.Layer_0.layer.model.bias f4 [10]
000000 7d 54 98 3b 16 05 f4 bc 91 bf ad 3e bc 9e 98 be
       0.0046487437 -0.029787581 0.33935216 -0.29808605
000010 08 71 1e ba f4 23 a0 bb e6 b7 b1 3e b7 4b cf be
       -0.00060440646 -0.0048870984 0.34710616 -0.40487453
000020 d4 ec 0d ba 8a f2 3b bb
       -0.0005414013 -0.00286785

model.mp.layer0.layer.model.lin_l.weight f4 [10, 10]
000000 4a a9 7b 05 0d ee 01 00 d5 27 6b b7 c5 33 1a a1
       1.1833057e-35 1.77232e-40 -1.4016366e-05 -5.2245746e-19
000010 31 d8 2e a3 1c ba 01 80 12 9a 2f b7 ac 54 05 80
       -9.478339e-18 -1.58599e-40 -1.0466685e-05 -4.89552e-40
000020 e7 15 04 80 61 08 09 00 e4 e9 19 3d 1e 61 0d 00
       -3.75199e-40 8.29525e-40 0.03757657 1.2287e-39
000030 2b 05 dd 3d 33 07 c8 3d d8 b6 12 bd f4 17 bc 2b
       0.10792001 0.09766998 -0.035818905 1.3364852e-12
000040 e5 2d e2 bd 52 82 20 3c 58 7f 61 2a 97 ce 32 37
       -0.1104391 0.009796696 2.0028196e-13 1.0657727e-05
000050 79 cf b0 bc 08 b4 fb 80 b7 45 ca bd 4a 55 0c 3e
       -0.021583306 -2.3115293e-38 -0.09876578 0.1370441
000060 74 ce f3 3c 3e 31 0f 80 38 98 1c be e2 dc 85 3d
       0.02976153 -1.395197e-39 -0.15292442 0.06536271
000070 61 cb 06 80 60 d4 cf 36 57 fb 02 80 56 46 07 00
       -6.23972e-40 6.1938044e-06 -2.73835e-40 6.6808e-40
000080 7e ed e6 a5 86 28 00 80 e3 13 02 80 db 6f 0d 00
       -4.005957e-16 -1.4537e-41 -1.90805e-40 1.233988e-39
000090 fd 72 d3 a2 91 4b 00 80 90 1f 3d 02 0c d0 0a 80
       -5.7313413e-18 -2.7108e-41 1.3894585e-37 -9.92988e-40
0000a0 24 25 6e 39 c7 08 11 80 12 60 23 3d 22 36 e2 ba
       0.00022711285 -1.564352e-39 0.03988654 -0.0017258564
0000b0 c4 1a 06 bd 21 8b 8c 98 1a 54 2c bd 24 d7 18 bd
       -0.03274037 -3.6329636e-24 -0.042072393 -0.03731455
0000c0 24 aa b6 98 b6 80 68 3c 2c c5 29 3d d9 e1 14 00
       -4.7217695e-24 0.014190843 0.041447803 1.917729e-39
0000d0 1d dd e1 3d cc 67 5e bb 24 50 8e 3d 1b 4a 08 80
       0.11028502 -0.003393638 0.06948879 -7.61268e-40
0000e0 6e 1f d0 bd 14 8f 3c bb af 80 09 80 bb 7c 8b 3a
       -0.10162245 -0.0028771805 -8.72682e-40 0.0010642031
0000f0 28 78 85 3c 6b e0 0a 00 c8 76 1a be 8e b1 02 3e
       0.016292647 9.98861e-40 -0.15084374 0.12763044
000100 25 9e 8f 3d a1 80 03 00 b4 13 4f be f5 88 81 3d
       0.070125856 3.2165e-40 -0.2022236 0.063249506
000110 ab b0 03 80 e6 5f b7 39 d6 42 91 3d 25 44 04 80
       -3.38883e-40 0.0003497593 0.07092826 -3.91788e-40
000120 71 93 f2 3c a1 7e ae 3d 5f 16 7c 3e 2a 08 8c 2d
       0.029611321 0.08520246 0.24617909 1.5919783e-11
000130 d6 21 03 bd f0 f1 29 3e 4c 22 7d aa 6e cb 8e 3c
       -0.03201469 0.16596198 -2.2482813e-13 0.017430987
000140 63 e2 0c 80 13 83 02 00 c7 f0 03 80 96 c2 06 00
       -1.183238e-39 2.30692e-40 -3.61881e-40 6.20817e-40
000150 56 53 01 00 2a 77 04 00 24 9d 01 80 3d ab 03 80
       1.21731e-40 4.1009e-40 -1.48207e-40 -3.36935e-40
000160 93 7c 87 01 b2 90 02 00 05 99 69 3d 3e 8c 11 80
       4.9769923e-38 2.35578e-40 0.057030696 -1.611513e-39
000170 68 7f 4e bd f4 ac 82 be 92 a0 30 3d 9d 06 b9 9b
       -0.050414473 -0.25522578 0.04312188 -3.0609956e-22
000180 a5 df 33 3d 0c 1e 92 be c3 4f 3f 0f 98 33 26 bc
       0.043914456 -0.2853855 9.4323886e-30 -0.010144137

model.mp.layer0.layer.model.lin_l.bias f4 [10]
000000 0c 31 98 b9 3f b5 02 3e d9 ac 99 bd bc 68 8d af
       -0.00029028242 0.12764452 -0.07503671 -2.572217e-10
000010 c8 75 bd bc eb 45 32 3d 23 c9 d9 3b fd 3c b7 bd
       -0.023127452 0.04352371 0.006646292 -0.089471795
000020 68 6e 36 a3 92 6b 53 3d
       -9.889619e-18 0.05161626

model.mp.layer0.layer.model.lin_r.weight f4 [10, 10]
000000 e9 fa 07 99 82 70 04 80 40 c8 f2 b7 ea 65 07 80
       -7.030007e-24 -4.07702e-40 -2.8941897e-05 -6.79408e-40
000010 51 e4 33 a8 b5 b5 01 00 24 fd b5 b7 8b a9 0a 80
       -9.986004e-15 1.5702e-40 -2.169476e-05 -9.79176e-40
000020 c4 82 0a 80 a4 7a 0b 00 47 96 91 bd 41 de 18 80
       -9.65265e-40 1.054186e-39 -0.07108741 -2.283782e-39
000030 d3 11 52 be 12 52 17 be 0d 1b d8 bc ec 18 05 2e
       -0.20514612 -0.14777401 -0.026380086 3.0262834e-11
000040 87 89 b1 bd 61 bd 1f 3e 0e 3a 82 ab 86 a8 ed b9
       -0.086688094 0.15599586 -9.253169e-13 -0.00045329722
000050 1d 31 fd 3b 8d ec 0c 00 4c 7d 05 3d 84 b0 ed bb
       0.007726802 1.186884e-39 0.032590196 -0.0072537083
000060 27 c6 76 3c 50 32 11 19 ab 71 e1 3c ab 37 d5 bd
       0.015061892 7.506485e-24 0.027520021 -0.104110084
000070 af c7 01 80 18 2a a9 b5 9f 10 02 80 56 3a 00 80
       -1.63468e-40 -1.2603732e-06 -1.89634e-40 -2.0927e-41
000080 80 bb 23 a7 b8 e8 00 80 68 79 02 80 9b ae 0c 00
       -2.2722438e-15 -8.3484e-41 -2.27223e-40 1.164663e-39
000090 88 cd 5b a4 49 05 02 80 9a 9d 0c 00 f6 ad 00 00
       -4.7662147e-17 -1.85567e-40 1.158563e-39 6.2405e-41
0000a0 fd fc 77 3d 6c f9 0a 80 e8 74 a5 3d 72 22 a8 be
       0.060544003 -1.00783e-39 0.08078939 -0.3283878
0000b0 de b5 98 3e 67 d1 69 a3 8b d5 b8 bc 0b 11 50 bd
       0.29826254 -1.2675298e-17 -0.022562763 -0.050797503
0000c0 1d 57 7d ae bc 9b 4f bc 38 83 bd 3b e5 08 16 00
       -5.7602912e-11 -0.012671407 0.0057834648 2.023572e-39
0000d0 00 7e 35 be ec b6 8d bd 91 e8 c1 3d 00 9d 19 87
       -0.17723846 -0.06919655 0.09468187 -1.1556579e-34
0000e0 9f 2f 48 bb 32 01 87 3c 5e be 03 00 88 85 0b bc
       -0.0030545963 0.016480062 3.43797e-40 -0.008515723
0000f0 56 73 d9 bb 18 35 0b 80 d0 11 de bc 01 d6 9e bd
       -0.0066360636 -1.029237e-39 -0.027108103 -0.07755662
000100 55 7d 64 bd c1 c6 01 80 35 dd 09 bd 77 de 20 be
       -0.05578359 -1.63135e-40 -0.033658225 -0.15709864
000110 72 32 08 80 9d f8 42 38 3c f6 d6 3b 1e 06 0b 00
       -7.5278e-40 4.6484744e-05 0.006560115 1.012385e-39
000120 c8 1c 74 bc 0e 25 88 be 70 65 24 3e d1 2b 27 b1
       -0.01489944 -0.2659077 0.1605432 -2.4326605e-09
000130 43 7e 0d 3e 88 5a 0c be 5f dd 5c ad 45 d3 23 bb
       0.13817696 -0.1370641 -1.2554706e-11 -0.0024997753
000140 ba 8e 03 00 9d d7 04 00 b1 06 0a 80 48 45 65 94
       3.26707e-40 4.4469e-40 -9.20755e-40 -1.1575209e-26
000150 38 64 2e 89 bf d1 00 00 fa f9 09 00 6e 38 02 80
       -2.099161e-33 7.5243e-41 9.16194e-40 -2.03914e-40
000160 b8 9e 7c 00 6c 6b 0d 00 5a d7 c0 3d e0 85 06 80
       1.1444539e-38 1.232397e-39 0.09416075 -5.99038e-40
000170 b1 e4 4b 3e 86 7c b9 bd f7 ab 06 3e 57 56 d7 1f
       0.19911458 -0.09056954 0.13151537 9.119888e-20
000180 1b db 60 bd 8a af 54 be 9f ef 57 1f 99 b1 8c bb
       -0.054896455 -0.20770088 4.572623e-20 -0.004293632

model.post_mp.layer_post_mp.model.0.model.weight f4 [1, 10]
000000 d9 63 b9 3e 95 ff d6 3f cb bd f7 bd c8 b7 c7 3f
       0.3620899 1.6796747 -0.12096747 1.560296
000010 d7 34 8f 3f 35 d1 bf 3f f5 6e 04 bf 55 3c 89 3f
       1.1188 1.498572 -0.51731807 1.0721537
000020 4e 99 04 80 33 02 b8 be
       -4.22337e-40 -0.35939178

exp_avg f4 [10, 1]
000000 ae 11 51 ba a8 d1 33 b7 4c 69 ae 3a f6 a5 b5 39
       -0.0007975352 -1.0718046e-05 0.0013306527 0.0003464666
000010 d0 ce ea ba 92 e1 44 b4 60 14 bc ba b1 a5 84 3b
       -0.0017914418 -1.8335984e-07 -0.0014349334 0.0040480723
000020 51 d9 97 b0 c7 1c 60 b7
       -1.1048461e-09 -1.3358141e-05

exp_avg_sq f4 [10, 1]
000000 c4 cf e9 37 03 10 8d 33 e7 4b 7f 39 c9 53 6a 38
       2.7872513e-05 6.568737e-08 0.00024346971 5.586798e-05
000010 4f 88 ab 39 fa 51 f1 32 64 58 58 38 b0 6b 14 39
       0.0003271722 2.8093371e-08 5.1580733e-05 0.00014154497
000020 ed 4c 0a 32 81 eb 4e 35
       8.050148e-09 7.7083683e-07

exp_avg f4 [10]
000000 c6 35 60 3b 46 a5 7a b7 0d b3 82 3b 34 d3 b6 39
       0.003421174 -1.4939642e-05 0.0039886297 0.00034871104
000010 0a 53 e8 3b 6a ef 24 b6 a6 fb 45 bb ca 37 89 3b
       0.007089977 -2.4577262e-06 -0.0030209809 0.004187559
000020 8c 5e 94 b4 06 ec c0 b5
       -2.763594e-07 -1.4373807e-06

exp_avg_sq f4 [10]
000000 fd 61 ed 39 6f 76 31 36 10 5e f3 39 d3 a1 f1 38
       0.0004527717 2.6443993e-06 0.00046418654 0.000115219176
000010 62 b8 0c 3c e0 ef 49 35 e6 a2 70 39 a1 56 44 39
       0.008588882 7.52274e-07 0.00022948868 0.00018724288
000020 fa a6 83 33 63 69 90 36
       6.130536e-08 4.303803e-06

exp_avg f4 [10, 10]
000000 bd 76 42 81 40 00 00 00 8f cf fb b1 34 72 db 9b
       -3.5717363e-38 9e-44 -7.328658e-09 -3.6304313e-22
000010 36 2c f0 9d 40 00 00 80 5a 17 bc b1 af 00 00 80
       -6.3573184e-21 -9e-44 -5.474175e-09 -2.45e-43
000020 7d 00 00 80 30 01 00 00 40 e4 cf 39 b3 01 00 00
       -1.75e-43 4.26e-43 0.00039652176 6.1e-43
000030 cd 5a 0a 3b 83 98 60 3a 77 2d 94 3a 98 3e 61 26
       0.002111125 0.0008567648 0.0011305053 7.8147387e-16
000040 8d db 00 3b cb 82 f6 39 61 fe 08 25 e5 a7 d5 31
       0.0019662112 0.00047018225 1.1882307e-16 6.2182033e-09
000050 df 30 c0 b9 39 01 00 00 97 b0 78 b9 b2 19 9f ba
       -0.00036657506 4.39e-43 -0.00023716908 -0.0012138395
000060 a1 eb 94 ba ef 01 00 80 e8 35 52 b9 61 9b 54 ba
       -0.0011361727 -6.94e-43 -0.00020047242 -0.00081103115
000070 d7 00 00 80 2d e2 76 31 5f 00 00 80 f4 00 00 00
       -3.01e-43 3.5926278e-09 -1.33e-43 3.42e-43
000080 f0 ca 8f a0 0e 00 00 80 4a 00 00 80 bc 01 00 00
       -2.4359435e-19 -2e-44 -1.04e-43 6.22e-43
000090 25 2d 88 9d 05 00 00 80 04 09 00 80 62 01 00 80
       -3.604558e-21 -7e-45 -3.234e-42 -4.96e-43
0000a0 11 cc 54 3a a5 01 00 80 46 6d e6 3b 6f 3d 1e 3b
       0.00081175665 -5.9e-43 0.0070320694 0.0024145504
0000b0 0a ac 0e 3b 27 6c 5a 93 5a 1b e3 3b 64 46 99 3a
       0.0021770024 -2.7568792e-27 0.006930751 0.0011693952
0000c0 4e 29 94 93 3d 39 f5 36 d7 06 3e b9 0d 01 00 00
       -3.7401182e-27 7.3082324e-06 -0.0001812236 3.77e-43
0000d0 79 00 a3 38 c1 9e d8 b9 c2 13 28 ba 12 01 00 80
       7.772534e-05 -0.0004131701 -0.00064116355 -3.84e-43
0000e0 ad 64 a7 37 d8 66 6d b9 31 01 00 80 e8 0b 16 35
       1.9954832e-05 -0.00022640394 -4.27e-43 5.589668e-07
0000f0 b9 88 20 ba 63 01 00 00 91 56 bc b9 68 0e 0f bb
       -0.0006123889 4.97e-43 -0.0003592265 -0.0021828655
000100 d4 4e 01 bb 73 00 00 00 9e 68 90 b9 ac 53 be ba
       -0.0019730823 1.61e-43 -0.00027543766 -0.0014520786
000110 7c 00 00 80 e3 2f 4a 34 72 74 03 3a 87 00 00 80
       -1.74e-43 1.8830137e-07 0.0005014605 -1.89e-43
000120 7f 2f 0f bb 60 60 bb 3a 19 6b d5 3a c5 cb 24 28
       -0.0021848378 0.001429569 0.0016282528 9.148014e-15
000130 8b 34 1d bb 69 08 37 3a 85 b2 1b a5 1a 89 14 37
       -0.0023987617 0.0006982149 -1.3504592e-16 8.853409e-06
000140 9f 01 00 80 4b 00 00 00 86 00 00 80 e0 00 00 00
       -5.82e-43 1.05e-43 -1.88e-43 3.14e-43
000150 23 00 00 00 91 00 00 00 36 00 00 80 7c 00 00 80
       4.9e-44 2.03e-43 -7.6e-44 -1.74e-43
000160 c8 06 00 80 4b 00 00 00 7a a5 06 ba cc 01 00 80
       -2.433e-42 1.05e-43 -0.0005136352 -6.45e-43
000170 b9 73 81 bb f8 bb a3 ba ac 93 cc ba fe d7 89 96
       -0.003950563 -0.0012491932 -0.0015607974 -2.2269854e-25
000180 dd 3f 7d bb 68 e1 21 ba 68 5a aa 0a 6a 99 ae b6
       -0.0038642802 -0.0006175251 1.6404412e-32 -5.203464e-06

exp_avg_sq f4 [10, 10]
000000 b1 a4 77 2f 6c 29 e6 29 38 08 71 32 28 2c 1c 30
       2.2523029e-10 1.02212374e-13 1.4029915e-08 5.681522e-10
000010 8b ed 31 30 ea 6a 98 29 a3 40 6e 32 79 b7 18 2f
       6.4729794e-10 6.7687026e-14 1.386812e-08 1.3889502e-10
000020 9d 3f c3 28 64 2a 31 27 06 38 82 36 8e 7d de 28
       2.1676937e-14 2.4586664e-15 3.880824e-06 2.4701402e-14
000030 f3 75 d1 38 d8 38 20 38 7a b3 1c 38 5b 8c d6 30
       9.987866e-05 3.8199913e-05 3.736045e-05 1.5610441e-09
000040 56 da cc 38 95 75 49 37 ef 06 bb 30 0f 57 db 30
       9.768146e-05 1.200791e-05 1.3608011e-09 1.5959091e-09
000050 d6 68 98 35 7b 4c 01 27 66 a5 10 37 3d 56 65 37
       1.1355394e-06 1.7943806e-15 8.621579e-06 1.3669543e-05
000060 a7 ca 43 37 e9 48 41 2f 2c ca 07 37 8b aa 98 36
       1.1670089e-05 1.757915e-10 8.093699e-06 4.549807e-06
000070 ca f4 22 2f 0c 2f e9 30 d0 bc 05 2d 7d 32 38 29
       1.4820781e-10 1.6966353e-09 7.6020995e-12 4.09e-14
000080 6a f8 98 30 94 a4 9d 2e 57 33 49 2f dc 9a a5 27
       1.1130059e-09 7.1687684e-11 1.8299083e-10 4.59646e-15
000090 2c 60 74 30 83 a2 20 2d 00 20 30 24 cd f0 fc 29
       8.890335e-10 9.131032e-12 3.819102e-17 1.12328204e-13
0000a0 b1 53 d9 36 87 6b 8c 28 57 2b 4c 3a 99 82 58 38
       6.476847e-06 1.5589755e-14 0.00077884406 5.162004e-05
0000b0 30 27 92 38 5f 13 f7 2f c3 11 5a 3a b0 74 8f 37
       6.969122e-05 4.4942802e-10 0.0008318687 1.7101265e-05
0000c0 dc 0b e4 2f 78 44 04 33 09 ad c8 35 15 97 ef 29
       4.1481385e-10 3.0795917e-08 1.4951521e-06 1.0639941e-13
0000d0 2f f0 43 38 ce 18 77 37 90 34 88 37 99 50 35 2f
       4.671531e-05 1.4728123e-05 1.623694e-05 1.6490488e-10
0000e0 41 ec 4e 38 4c b5 a2 36 e5 34 da 2d b7 26 49 32
       4.9334256e-05 4.849082e-06 2.480722e-11 1.1708543e-08
0000f0 04 04 fa 35 71 bf a5 2a da 6b 14 36 85 20 d3 37
       1.862762e-06 2.9442727e-13 2.2116496e-06 2.5168303e-05
000100 bf d7 ad 37 ad 0c 63 2d f9 91 03 36 5a 9c 14 37
       2.0723672e-05 1.2906271e-11 1.9605488e-06 8.857891e-06
000110 40 97 a1 2e 39 2a bf 31 f9 a4 b9 36 bc 2b 12 2a
       7.3483e-11 5.5636318e-09 5.532635e-06 1.2982578e-13
000120 e2 d9 ba 3a c7 5d d1 37 6f b4 7b 38 cb 68 01 31
       0.0014255608 2.495841e-05 6.0011105e-05 1.8831539e-09
000130 ab e1 ca 3a 2b 3b 04 37 ea 50 a8 30 ff 74 e1 33
       0.0015478631 7.881589e-06 1.2246606e-09 1.04986604e-07
000140 71 a0 81 2b 29 59 84 2a dc bb 62 2e 32 81 9a 2c
       9.210533e-13 2.3509778e-13 5.1553303e-11 4.391287e-12
000150 62 49 27 2d a8 95 5d 27 85 fa 5b 2e 15 2b 9c 2b
       9.509145e-12 3.075104e-15 5.001734e-11 1.1096424e-12
000160 a0 e9 ff 25 37 ee 34 28 94 c2 e3 36 ae 25 07 2a
       4.439376e-16 1.0043662e-14 6.787779e-06 1.2003481e-13
000170 e5 81 c4 39 73 aa 50 38 ca a9 9b 38 ec 55 08 30
       0.00037480812 4.9749808e-05 7.4226016e-05 4.9598614e-10
000180 ea 9f cf 39 1c f8 86 37 86 91 a7 2f 01 a6 2e 33
       0.00039601262 1.608958e-05 3.0480524e-10 4.066351e-08

exp_avg f4 [10]
000000 d8 c6 20 b4 8b 80 4c 3b 82 66 0d bb 5e 98 20 aa
       -1.49735e-07 0.0031204547 -0.0021575992 -1.4263718e-13
000010 ad 17 c7 3c da ad 65 b9 ad 0d 70 bb b3 ac 52 3c
       0.024303282 -0.00021903907 -0.0036629245 0.0128585575
000020 52 23 f8 9d fd 20 fd bb
       -6.5681574e-21 -0.00772488

exp_avg_sq f4 [10]
000000 1a ff ee 32 c1 87 ef 39 48 16 ca 38 2b c9 53 31
       2.7822853e-08 0.00045686777 9.636261e-05 3.0818892e-09
000010 86 b9 ad 3b 90 d0 6f 39 f2 4e 9a 38 75 e8 f1 3b
       0.005301657 0.00022870512 7.357997e-05 0.0073824474
000020 c1 66 39 30 f8 fd c0 3a
       6.744863e-10 0.0014724126

exp_avg f4 [10, 10]
000000 75 9d d9 93 91 00 00 80 00 50 82 b2 f4 00 00 80
       -5.4933766e-27 -2.03e-43 -1.5170372e-08 -3.42e-43
000010 e9 c0 df a2 40 00 00 00 ae cb 43 b2 59 01 00 80
       -6.0648523e-18 9e-44 -1.1396805e-08 -4.83e-43
000020 4f 01 00 80 80 01 00 00 e8 c3 19 3a 23 01 00 00
       -4.7e-43 5.38e-43 0.0005865679 4.08e-43
000030 06 72 fb 39 af 38 e8 3a 42 5c 03 3b ae 58 9b 28
       0.00047959405 0.0017717088 0.0020044004 1.7246916e-14
000040 da 41 c3 39 8e 22 85 3a 54 eb 1d a6 7b 55 81 b4
       0.00037242362 0.0010157393 -5.4789246e-16 -2.4090318e-07
000050 e0 61 80 b8 9f 01 00 00 4c 11 b2 ba c2 17 40 b9
       -6.121746e-05 5.82e-43 -0.0013585477 -0.00018319397
000060 9c 9a 19 b9 bf c5 e5 13 21 5b b4 ba 4a f7 fc b8
       -0.00014648814 5.800272e-27 -0.0013760069 -0.000120623576
000070 40 00 00 80 16 d2 50 b0 41 00 00 80 0e 00 00 80
       -9e-44 -7.596851e-10 -9.1e-44 -2e-44
000080 ef 3c c9 a1 22 00 00 80 54 00 00 80 9f 01 00 00
       -1.3636419e-18 -4.8e-44 -1.18e-43 5.82e-43
000090 70 2a 0b 9f 4a 00 00 80 95 01 00 00 18 00 00 00
       -2.94695e-20 -1.04e-43 5.68e-43 3.4e-44
0000a0 0a 7a 29 39 63 01 00 80 f6 1f 8c 3c e5 a3 54 b9
       0.00016162559 -4.97e-43 0.017105084 -0.00020278951
0000b0 18 90 12 ba eb 8b 1b 9e f2 6d 8e 3c 1a 38 da 37
       -0.00055909296 -8.234566e-21 0.01738641 2.601375e-05
0000c0 7b e1 12 a9 17 c0 d7 b6 ee 51 c5 b7 36 02 00 80
       -3.2614085e-14 -6.4298615e-06 -2.3522382e-05 -7.93e-43
0000d0 84 0e 57 b9 16 91 99 b8 8b b7 85 b8 07 5e 32 01
       -0.00020509405 -7.322633e-05 -6.376122e-05 3.2760898e-38
0000e0 37 24 05 b9 73 d1 6d 38 7c 00 00 00 dc f7 92 b6
       -0.0001269736 5.6700268e-05 1.74e-43 -4.3799937e-06
0000f0 fa 69 9e b8 6d 01 00 80 0d 98 23 bb 6d 40 49 b9
       -7.553767e-05 -5.11e-43 -0.0024962455 -0.00019192854
000100 8b dc 27 b9 40 00 00 80 90 98 26 bb 8e 91 0c b9
       -0.0001600852 -9e-44 -0.0025420524 -0.00013405664
000110 12 01 00 80 41 c7 e0 32 98 7e 8d b8 57 01 00 00
       -3.84e-43 2.6167642e-08 -6.746984e-05 4.8e-43
000120 52 04 16 3c 76 bd c2 b9 6a 62 2f ba 02 8b bc ab
       0.0091563035 -0.00037143723 -0.0006690385 -1.3396786e-12
000130 08 aa 1b 3c e8 a8 e3 b8 5b a2 02 a8 32 ce a9 b5
       0.009500988 -0.00010855665 -7.251655e-15 -1.2651492e-06
000140 73 00 00 00 9b 00 00 00 45 01 00 80 e6 ec 60 8f
       1.61e-43 2.17e-43 -4.55e-43 -1.1089678e-29
000150 00 29 aa 83 22 00 00 00 4e 01 00 00 41 00 00 80
       -1.0001115e-36 4.8e-44 4.68e-43 -9.1e-44
000160 98 05 00 80 bc 01 00 00 db ce e7 b7 cd 00 00 80
       -2.007e-42 6.22e-43 -2.763367e-05 -2.87e-43
000170 cd 79 a2 bb 1a 86 de b9 02 c3 25 38 ff f0 95 1a
       -0.0049583674 -0.00042443053 3.952068e-05 6.2014306e-23
000180 0d f4 a9 bb 59 b4 e5 b9 52 14 1b 1a 9a d5 13 b6
       -0.005186564 -0.00043812653 3.2069663e-23 -2.202904e-06

exp_avg_sq f4 [10, 10]
000000 6f 74 e9 2f a1 91 8c 27 66 cc 59 32 70 c8 a4 2e
       4.2465184e-10 3.9015697e-15 1.2677537e-08 7.4934614e-11
000010 8e 61 9a 30 82 9e ec 29 9a fc 47 32 ff 03 21 2f
       1.1232701e-09 1.0508002e-13 1.16407595e-08 1.4644284e-10
000020 f9 91 95 28 21 79 d1 28 61 24 24 36 71 87 7a 29
       1.6605629e-14 2.3256193e-14 2.445908e-06 5.5628628e-14
000030 b5 f4 49 39 31 70 c1 37 9c 4c dc 37 49 f4 0e 31
       0.00019260014 2.3059636e-05 2.6261718e-05 2.080258e-09
000040 6f a4 54 39 b1 ec b3 36 49 5d be 30 e2 85 07 32
       0.00020279152 5.36217e-06 1.3850833e-09 7.888476e-09
000050 73 0f 4b 34 5c 90 85 2a 27 57 3d 38 16 b6 1b 35
       1.8911469e-07 2.3725715e-13 4.514228e-05 5.800697e-07
000060 58 3f 02 36 0c 55 ee 2f ba 9a 4a 38 6b c5 6b 33
       1.940838e-06 4.3352377e-10 4.8304653e-05 5.4894752e-08
000070 70 a5 fb 2e 81 b2 a3 30 f8 80 07 2d d9 b7 2f 26
       1.1443546e-10 1.1910545e-09 7.702498e-12 6.096448e-16
000080 2c 8a a9 30 d7 a2 c0 2e c0 ba 4d 2f 4b 56 f5 28
       1.2335639e-09 8.760075e-11 1.8710988e-10 2.7237888e-14
000090 18 06 88 30 85 1a 80 2c 67 de 94 28 0f 3e 0d 26
       9.897034e-10 3.640923e-12 1.6527752e-14 4.9003307e-16
0000a0 8d 31 5f 36 a2 a5 48 2a ab 76 25 3b 8b a2 5c 36
       3.3258432e-06 1.7821034e-13 0.0025247734 3.2877167e-06
0000b0 c1 da 15 38 bd 1f 4d 30 88 3e 33 3b 2d b0 d6 33
       3.57281e-05 7.462367e-10 0.0027350504 9.997198e-08
0000c0 ae 8c 1b 31 7a b1 fe 33 cd 85 eb 36 b5 49 fa 28
       2.2635436e-09 1.18600795e-07 7.019122e-06 2.7787541e-14
0000d0 9d bb 3b 38 4e eb 4a 38 9b cf a4 38 8d b0 8a 2f
       4.4759003e-05 4.8379698e-05 7.858799e-05 2.52275e-10
0000e0 eb 97 34 38 09 d2 cf 36 38 37 14 2f 35 eb 0f 33
       4.305683e-05 6.193532e-06 1.3480139e-10 3.35087e-08
0000f0 cc db 1e 34 21 76 5c 2a 34 38 0e 38 c1 96 14 35
       1.4794858e-07 1.958091e-13 3.390778e-05 5.535367e-07
000100 9b 78 da 35 9f 0c bc 2d 0e cf 1a 38 bf 8d a6 33
       1.6277367e-06 2.137873e-11 3.6909296e-05 7.755761e-08
000110 a9 a8 0b 2e 76 59 28 31 6a 0d 59 36 ab d0 48 2b
       3.175474e-11 2.449807e-09 3.2343328e-06 7.134386e-13
000120 5e 95 64 3b 93 8e 4a 36 84 84 12 38 e0 99 6e 31
       0.003487907 3.0183335e-06 3.4932527e-05 3.4721026e-09
000130 bf df 7b 3b 1f fc 11 34 0c 1a f4 30 2a cb 3a 34
       0.0038432924 1.3595898e-07 1.776074e-09 1.739651e-07
000140 49 bf cd 2d 50 a0 99 28 12 c9 a4 2c 6f 24 bb 2f
       2.339075e-11 1.7055937e-14 4.6834836e-12 3.404099e-10
000150 3c eb 87 2f 8e 3e 00 29 e4 9a 1f 2c 24 4a 03 2f
       2.47235e-10 2.8475967e-14 2.268124e-12 1.194072e-10
000160 dc 1b 0f 26 ca 0d a4 29 64 82 97 36 ee 7a b0 2a
       4.965085e-16 7.285455e-14 4.51533e-06 3.134918e-13
000170 fb a1 2b 3a 85 48 ca 37 cd ce 52 38 38 a2 28 30
       0.00065472693 2.4114046e-05 5.02605e-05 6.134857e-10
000180 f5 26 3a 3a 93 e0 98 36 9f 88 17 30 76 da 2b 33
       0.0007101142 4.556097e-06 5.512763e-10 4.001273e-08

exp_avg f4 [1, 10]
000000 4a cd 45 b6 cc c3 33 b7 6b 64 59 3b 5e 1c 00 38
       -2.9474782e-06 -1.0714819e-05 0.0033171426 3.0543997e-05
000010 c5 63 a6 b7 17 71 a9 38 5a 2c 54 3b dd 9f ed 3a
       -1.98352e-05 8.0796126e-05 0.0032375068 0.0018129308
000020 9a 00 00 80 fd 61 2f 3b
       -2.16e-43 0.0026761286

exp_avg_sq f4 [1, 10]
000000 31 03 93 34 1b ed 9b 34 87 8a 04 39 9e d7 0a 35
       2.7383206e-07 2.9043517e-07 0.00012640106 5.172277e-07
000010 88 9a 43 37 e5 50 97 34 a2 7c 07 39 39 98 3a 38
       1.1658885e-05 2.81848e-07 0.00012921033 4.4487624e-05
000020 8e 57 16 2f c7 9a 44 39
       1.3673526e-10 0.00018749676
