saved_results/yeast-GCNConv-best-model copy/yeast-gcnconv-ORBI/0/ckpt/epoch=299-step=300.ckpt (torch, 11738 bytes, 15 tensors)

model.pre_mp.Layer_0.layer.model.weight f4 [10, 1]
0.6035079 -0.7928796 1.1158037 -0.3792073 -0.19042121 -0.19429836 -0.3015379 -0.5131764
0.33742255 -0.53717744
00000000: 7e7f 1a3f 28fa 4abf a8d2 8e3f 7627 c2be
00000010: c7fd 42be 26f6 46be 2d63 9abe 875f 03bf
00000020: a6c2 ac3e 7684 09bf

model.pre_mp.Layer_0.layer.model.bias f4 [10]
-0.61509544 0.7804392 -0.02032365 -0.25960928 0.58888346 -0.65699816 -0.050243683 0.5049144
-0.0001756204 -0.12445503
00000000: e576 1dbf ddca 473f c97d a6bc 82eb 84be
00000010: 11c1 163f 0831 28bf 52cc 4dbd 1242 013f
00000020: be26 38b9 47e2 febd

model.mp.layer0.layer.model.bias f4 [10]
0.10971862 0.09786146 -0.11744597 -0.05771732 -0.0060001817 -0.06172595 0.040140152 0.06879679
-0.09332406 -0.16162334
00000000: 28b4 e03d 976b c83d 8387 f0bd ff68 6cbd
00000010: 2c9d c4bb 5ad4 7cbd 006a 243d 55e5 8c3d
00000020: af20 bfbd 9780 25be

model.mp.layer0.layer.model.lin.weight f4 [10, 10]
0.12304159 0.06909152 -0.13198772 -0.21858917 -0.16521078 0.19203196 0.031121785 0.14781058
-0.3070547 -0.17314565 0.021814838 0.047587886 -0.1699047 -0.09733015 -0.15269628 2.4754512e-09
5.516178e-07 0.09934783 -0.20396087 0.02388346 0.16978326 0.31463546 0.11815114 -0.23689827
-0.10909313 0.19588181 -0.023206979 -0.08508178 -0.008892005 -0.14028233 0.31978983 -0.18996756
-0.24546729 -0.14639479 -0.29611143 -0.26903254 0.17317921 0.35440457 -0.22754683 -0.08290342
0.032325994 -0.14766455 0.28354105 -0.06219382 -0.32273698 -0.19866166 -0.0076927803 0.29006225
-0.2206883 -0.24595733 0.4788161 -0.3228424 0.3787298 0.27493715 0.3655533 0.20478614
-0.16450378 -0.29898512 -0.29714698 0.12788516 -0.20948231 0.19824675 -0.44321564 -3.6742165e-09
0.37545177 3.0329657e-09 0.20958537 -0.35214165 -0.10186437 -0.00048414443 -0.6468486 -0.0649473
-0.24724412 -0.26627645 0.3038448 -0.08305258 1.2261581e-11 0.009627937 -0.5896574 -0.042113177
0.1982479 -0.2757675 0.4044074 0.0044974172 0.21461537 0.08299545 -3.6857455e-07 -0.44993314
0.26449713 -0.003977379 0.35531214 -0.087858774 0.27458376 0.15302305 0.30606258 -0.15773223
-0.04654722 -0.004539333 -0.08770884 0.0006011293
00000000: 3bfd fb3d db7f 8d3d ca27 07be d7d5 5fbe
00000010: 042d 29be 07a4 443e 1df3 fe3c a85b 173e
00000020: 4636 9dbe 184d 31be 08b5 b23c 84eb 423d
00000030: 7ffb 2dbe 0855 c7bd 6a5c 1cbe 991c 2a31
00000040: e312 1435 e076 cb3d 1edb 50be 3fa7 c33c
00000050: aadb 2d3e e617 a13e 3af9 f13d 7695 72be
00000060: 386c dfbd 3e95 483e 901c bebc 5b3f aebd
00000070: c6af 11bc 2ca6 0fbe 7ebb a33e db86 42be
00000080: c75b 7bbe 84e8 15be eb9b 97be a2be 89be
00000090: e455 313e 8474 b53e 0902 69be 45c9 a9bd
000000a0: 4368 043d 6035 17be 4b2c 913e f2be 7ebd
000000b0: c83d a5be f66d 4bbe b813 fcbb 0a83 943e
000000c0: 1dfc 61be 3ddc 7bbe 6227 f53e 994b a5be
000000d0: dfe8 c13e 90c4 8c3e cd29 bb3e 75b3 513e
000000e0: ae73 28be 9414 99be a623 98be 54f4 023e
000000f0: 8882 56be 3201 4b3e 29ed e2be 807d 7cb1
00000100: 373b c03e 7f6c 5031 8c9d 563e e94b b4be
00000110: 449e d0bd c4d4 fdb9 df97 25bf 1703 85bd
00000120: 902d 7dbe 6355 88be 8c91 9b3e 7917 aabd
00000130: 40b5 572d 7fbe 1d3c caf3 16bf de7e 2cbd
00000140: 7f01 4b3e 6631 8dbe 7d0e cf3e 125f 933b
00000150: 22c4 5b3e 85f9 a93d 80e0 c5b4 a35d e6be
00000160: 2b6c 873e ac54 82bb 79eb b53e 4def b3bd
00000170: 3e96 8c3e 13b2 1c3e 3cb4 9c3e 8f84 21be
00000180: 4ca8 3ebd afbe 94bb b1a0 b3bd 1b95 1d3a

model.post_mp.layer_post_mp.model.0.model.weight f4 [1, 10]
-0.36880326 -0.44571504 0.35637638 0.100620575 -0.32634562 0.4800579 -0.3211309 -0.47131866
0.5461855 0.45594737
00000000: c8d3 bcbe c334 e4be f776 b63e 2912 ce3d
00000010: c616 a7be 26ca f53e 456b a4be ae50 f1be
00000020: d0d2 0b3f ef71 e93e

exp_avg f4 [10, 1]
0.0042453045 -0.0018352139 0.00048701858 -0.00019346402 0.015145676 -0.000100419384 -0.00015444092 0.0028071133
-0.011305557 -0.00027270213
00000000: 321c 8b3b 8f8b f0ba 8756 ff39 9adc 4ab9
00000010: 9225 783c 3f98 d2b8 6bf1 21b9 8cf7 373b
00000020: f13a 39bc 76f9 8eb9

exp_avg_sq f4 [10, 1]
4.1485244e-05 5.400217e-06 6.4303626e-06 1.661762e-08 3.1537635e-05 6.3423102e-09 1.1760258e-08 9.602061e-05
6.55544e-05 2.8914744e-08
00000000: 7100 2e38 8333 b536 65c4 d736 88be 8e32
00000010: 4747 0438 8deb d931 290a 4a32 ac5e c938
00000020: 407a 8938 3260 f832

exp_avg f4 [10]
0.0036391742 -0.0015371757 0.0033465973 -0.00013334511 0.01152397 -0.0003327395 -2.7054211e-05 0.0034978339
-0.0069794003 -6.505536e-05
00000000: 367f 6e3b 0f7b c9ba 9652 5b3b 8ed2 0bb9
00000010: 09cf 3c3c 8a73 aeb9 7af2 e2b7 ea3b 653b
00000020: 74b3 e4bb 556e 88b8

exp_avg_sq f4 [10]
4.0021918e-05 1.223301e-05 1.2774235e-05 9.4639905e-09 4.7684356e-05 4.040289e-08 1.4012219e-09 9.95687e-05
5.463672e-05 3.6163283e-09
00000000: 35dd 2738 613c 4d37 ec50 5637 1297 2232
00000010: b000 4838 7387 2d33 1d95 c030 8acf d038
00000020: bb29 6538 1f83 7831

exp_avg f4 [10]
0.011401502 0.003994954 0.0018606703 0.00013795165 -0.0011883781 -0.026545636 -0.028506687 0.022932598
-0.010228732 -0.0034588552
00000000: 5ecd 3a3c 1ae8 823b bce1 f33a 1da7 1039
00000010: 5ac3 9bba 3c76 d9bc db86 e9bc 25dd bb3c
00000020: 6996 27bc f6ad 62bb

exp_avg_sq f4 [10]
0.00017175935 8.767185e-05 4.2895357e-05 1.6161586e-06 0.00018599833 0.0002578251 0.00038055345 0.00025093663
0.00019479015 0.0004200735
00000000: 4d1a 3439 77dc b738 8aea 3338 c9ea d835
00000010: 8c08 4339 b32c 8739 0585 c739 2590 8339
00000020: 9540 4c39 503d dc39

exp_avg f4 [10, 10]
0.00013444612 -0.0027326995 0.002548852 -0.00011267688 -0.0016874245 9.927488e-05 1.707786e-05 -0.0020561167
0.0012815122 -8.97309e-05 3.8396447e-05 -0.0011221337 0.0011208052 -5.1243664e-05 -0.0012272777 1.0160526e-12
6.133104e-10 -0.0012156424 0.00054156914 1.32551195e-05 8.305986e-05 0.0015986272 4.910205e-05 -0.0001219063
0.00057113357 0.00010121894 -1.2895976e-05 0.00056196784 -1.543464e-05 -7.308984e-05 0.0001631672 -9.27499e-05
-0.0001256898 -7.618887e-05 -0.00014719256 -0.00013808861 8.97479e-05 0.00032158534 -0.000117569216 -4.3868677e-05
1.6801905e-05 -0.00058262947 9.699154e-05 -3.323087e-05 -0.00023595167 -0.000102622376 -4.5101283e-06 -0.00028259365
-0.00010857933 -0.00012647022 0.0001935151 -0.0058012595 -0.0100343805 0.00014106018 -0.008815582 0.00010571365
-8.535951e-05 -0.003736822 -0.005542639 6.679794e-05 -5.8700924e-05 -0.006851378 -0.004554808 3.479909e-12
-0.006121928 -5.892511e-13 0.00010813528 -0.006243537 -0.0010706168 -3.3974257e-07 -0.0003301915 0.002768451
0.0071392213 -0.00013670139 0.008161737 -4.3945063e-05 2.017838e-12 0.0026541334 0.0034828784 -2.2829334e-05
0.00013484406 -0.0014003807 0.00012157673 2.715638e-06 -0.00050737284 4.3915807e-05 1.4443395e-09 -0.0012618466
-0.00016476084 -2.4186702e-06 5.840626e-05 0.004059065 -0.004787485 7.954729e-05 0.0009789255 -8.193206e-05
-2.5136016e-05 0.0034450088 -0.0026399074 4.1473302e-07
00000000: 1bfa 0c39 1717 33bb a40a 273b f04c ecb8
00000010: 922c ddba cc31 d038 6d42 8f37 eabf 06bb
00000020: 6af8 a73a e92d bcb8 df0b 2138 8f14 93ba
00000030: fbe7 923a 77ee 56b8 9bdc a0ba 27ff 8e2b
00000040: e295 2830 3156 9fba 17f8 0d3a 4e62 5e37
00000050: 6c30 ae38 0789 d13a edf2 4d38 f2a7 ffb8
00000060: 20b8 153a 8145 d438 cc5b 58b7 0651 133a
00000070: a379 81b7 cf47 99b8 dd17 2b39 b982 c2b8
00000080: 99cb 03b9 97c7 9fb8 b457 1ab9 e1cb 10b9
00000090: 0937 bc38 749a a839 7e8f f6b8 a2ff 37b8
000000a0: d1f1 8c37 9abb 18ba f067 cb38 6061 0bb8
000000b0: cb69 77b9 f836 d7b8 b555 97b6 1429 94b9
000000c0: 15b5 e3b8 179d 04b9 50ea 4a39 7e18 bebb
000000d0: 3e67 24bc 8ee9 1339 3b6f 10bc 95b2 dd38
000000e0: 0a03 b3b8 78e5 74bb 079f b5bb df15 8c38
000000f0: a335 76b8 8681 e0bb 8040 95bb 78e0 742c
00000100: 749a c8bb 04dc 25ab b0c6 e238 9696 ccbb
00000110: f053 8cba dd65 b6b4 8e1d adb9 e76e 353b
00000120: 21f0 e93b 8057 0fb9 ceb8 053c a751 38b8
00000130: 23fe 0d2c f8f0 2d3b 0141 643b 9f81 bfb7
00000140: ed64 0d39 fb8c b7ba 03f7 fe38 4e3e 3636
00000150: 3701 05ba 3d32 3838 2e82 c630 8c64 a5ba
00000160: a7c3 2cb9 7050 22b6 3ff9 7438 e801 853b
00000170: 56e0 9cbb a0d2 a638 4a4f 803a f1d2 abb8
00000180: 2fdb d2b7 a8c5 613b 4c02 2dbb 79a8 de34

exp_avg_sq f4 [10, 10]
6.698124e-07 1.179866e-05 1.6725522e-05 7.4386e-09 2.54742e-05 6.243926e-09 9.341146e-10 9.245101e-06
3.2478408e-06 5.450031e-09 3.6394738e-07 4.6775504e-06 7.815458e-06 2.7270441e-09 1.0998866e-05 7.5262556e-13
4.1259725e-11 3.912734e-06 1.3942704e-06 7.648315e-10 3.007463e-08 2.582723e-06 3.5066748e-07 8.315598e-09
2.4946885e-06 6.41144e-09 7.491222e-10 1.947179e-06 8.692771e-08 4.178802e-09 1.649454e-08 3.5517818e-08
1.0688158e-08 4.404671e-09 6.288856e-08 9.960148e-09 5.4514153e-09 1.9093537e-07 6.2139156e-09 2.2920492e-09
3.7562227e-06 6.5438558e-06 3.7064267e-05 1.7125403e-09 5.4723016e-05 6.5335857e-09 3.8020473e-10 2.0245703e-05
5.7014713e-06 8.765632e-09 5.3748795e-07 1.5404095e-05 2.4099621e-05 1.0276948e-08 4.2120446e-05 6.8062467e-09
5.102199e-09 1.4167998e-05 5.576311e-06 3.7354906e-09 2.1256774e-07 2.3485321e-05 3.818963e-05 4.6340037e-12
6.289604e-05 8.6382924e-13 7.0233037e-09 1.8173685e-05 7.819066e-06 1.3472552e-10 5.653647e-07 1.6332373e-05
2.2278125e-05 9.81384e-09 3.8199523e-05 2.296413e-09 1.7095516e-12 1.2049081e-05 4.364727e-06 1.1983475e-09
5.823007e-07 1.0949569e-05 1.8335688e-05 2.9280872e-10 2.942475e-05 2.2947413e-09 5.7375306e-11 9.723451e-06
3.669633e-06 2.7720792e-10 3.5094106e-07 2.3513705e-05 3.0047873e-05 4.6550594e-09 5.016974e-05 4.836408e-09
1.3081323e-09 2.0547574e-05 7.0641763e-06 1.4288075e-10
00000000: 28cd 3335 dcf2 4537 c94d 8c37 9e96 ff31
00000010: 6eb1 d537 278a d631 3c62 8030 681b 1b37
00000020: 7bf5 5936 fb42 bb31 8c64 c334 daf3 9c36
00000030: 231f 0337 ab66 3b31 c587 3837 63d8 532b
00000040: 5276 352e 214a 8336 c422 bb35 3b3c 5230
00000050: 682b 0133 d852 2d36 5f43 bc34 63dc 0e32
00000060: 6c6a 2736 9f4b dc31 caea 4d30 48ac 0236
00000070: 04ad ba33 2295 8f31 e1af 8d32 418c 1833
00000080: 049f 3732 e557 9731 5a0d 8733 321d 2b32
00000090: 284f bb31 ea03 4d34 2e82 d531 2882 1d31
000000a0: 6a13 7c36 4b93 db36 7475 1b38 a85e eb30
000000b0: 6486 6538 077e e031 0f05 d12f 51d5 a937
000000c0: 444f bf36 a897 1632 e447 1035 0b38 8137
000000d0: 8b29 ca37 7f8e 3032 7caa 3038 61dc e931
000000e0: 6b4f af31 17b3 6d37 261c bb36 b959 8031
000000f0: 2d3e 6434 5802 c537 ce2d 2038 650b a32c
00000100: 0ee7 8338 7525 732b a251 f131 b173 9837
00000110: a22e 0337 dd21 142f 91c3 1735 8101 8937
00000120: e9e1 ba37 ba99 2832 6d38 2038 edce 1d31
00000130: 1699 f02b 6926 4a37 b874 9236 1bb3 a430
00000140: 664f 1c35 0ab4 3737 97cf 9937 2af9 a02f
00000150: 2bd5 f637 84b1 1d31 da56 7c2e e721 2337
00000160: d143 7636 8c65 982f f968 bc34 4c3f c537
00000170: 510f fc37 56f2 9f31 596d 5238 7f2d a631
00000180: d0c9 b330 945d ac37 d008 ed36 5b19 1d2f

exp_avg f4 [1, 10]
0.026980769 0.05230745 -0.03756742 0.0001855462 0.003009879 -0.02697306 0.0209414 0.049782276
-0.04854305 -0.019964838
00000000: c606 dd3c 5640 563d 4ce0 19bd 2e8f 4239
00000010: 6441 453b 9bf6 dcbc 4d8d ab3c 80e8 4b3d
00000020: 14d5 46bd 4d8d a3bc

exp_avg_sq f4 [1, 10]
0.00010759997 0.0007524568 0.00032292627 6.429193e-08 1.0685301e-05 0.00017851497 0.00013060328 0.0005539716
0.00038933713 9.830685e-05
00000000: 4ba7 e138 8540 453a 6e4e a939 dd10 8a33
00000010: 0545 3337 bf2f 3b39 8df2 0839 6838 113a
00000020: f21f cc39 172a ce38
