saved_results/gastric-graphsage-with-mRNA/0/ckpt/epoch=199-step=4800.ckpt (torch, 14094 bytes, 18 tensors)

model.pre_mp.Layer_0.layer.model.weight f4 [10, 2]
000000 9d 20 a4 bd 47 fc 77 3e 1b af d3 be c8 d6 bd bc
       -0.08014033 0.2421733 -0.41344532 -0.023173705
000010 b3 89 88 3e b2 fa b3 be 51 4e e4 3e d7 d9 b3 ba
       0.26667556 -0.35152203 0.44591 -0.0013721538
000020 02 e1 61 3f 4b 2b 38 3e 08 f9 4d be 75 d2 8e be
       0.8823396 0.17985265 -0.20114529 -0.2789494
000030 a8 08 24 bb 79 7a 80 bc 67 1b a1 3e 6b d3 28 3e
       -0.0025029574 -0.0156834 0.3146622 0.164869
000040 d1 98 e2 11 86 ea 22 9e 4d 32 00 b9 60 05 00 bb
       3.5750693e-28 -8.624707e-21 -0.0001222577 -0.0019534454

model.pre_mp.Layer_0.layer.model.bias f4 [10]
000000 77 1c 2a be d3 1d 0c 3f 8e 2e ae 3e a3 d5 83 ba
       -0.16612421 0.5473301 0.34019893 -0.0010058176
000010 b6 32 0c bf 2c a6 19 3f fd e8 50 bc d8 f8 16 3c
       -0.5476488 0.60019183 -0.012750861 0.009214602
000020 da 75 6c 93 d8 7c a6 b9
       -2.9845493e-27 -0.00031755003

model.mp.layer0.layer.model.lin_l.weight f4 [10, 10]
000000 68 d6 00 b8 10 4c a9 b1 bb 60 94 a8 24 d3 f4 b0
       -3.071726e-05 -4.9271947e-09 -1.6473251e-14 -1.7813346e-09
000010 ad b2 82 b7 48 9f b8 aa 35 a7 0a 00 f3 8e 55 b7
       -1.558041e-05 -3.279549e-13 9.78338e-40 -1.2729072e-05
000020 f0 61 04 00 b9 f0 04 00 28 8f 62 bc b1 d5 13 3d
       4.02475e-40 4.53697e-40 -0.013828076 0.036092464
000030 3a 0d af 3d 70 67 9b be 99 10 a8 3c 68 f4 83 3e
       0.08547445 -0.30352354 0.020515727 0.25772405
000040 6c 0f 54 17 cc 07 76 3c f3 ef 20 0f 47 27 02 00
       6.852036e-25 0.015016507 7.9348216e-30 1.97761e-40
000050 de a4 0c 3e 5e 5b 90 bd 07 39 cc 3b ee 36 87 bd
       0.13734767 -0.07048677 0.006232384 -0.06602274
000060 66 31 f6 bd b8 b5 ff bb 68 e6 97 97 ea 69 e9 bd
       -0.12021141 -0.007803645 -9.816309e-25 -0.11397155
000070 06 45 b9 11 1e a5 0c 00 a7 f1 23 3e dd 45 2b be
       2.9230392e-28 1.161259e-39 0.16010152 -0.1672587
000080 60 04 98 3d 4c 87 2e 3e a1 d2 39 3e e1 a9 23 bd
       0.074227095 0.17043799 0.18146755 -0.03995693
000090 38 d1 48 97 46 06 35 be 51 5b 31 13 2b 93 ed 11
       -6.4887557e-25 -0.17678174 2.2385563e-27 3.7482706e-28
0000a0 20 c4 a8 3d 51 9b d4 bc a7 83 d9 be 3e a4 e3 3d
       0.08240533 -0.025952967 -0.42483255 0.11115311
0000b0 a4 62 39 3d 6e c9 ef be 3e 00 96 2e 6e 52 77 bc
       0.045260087 -0.46833366 6.821253e-11 -0.015095336
0000c0 3b 2c 2b 92 50 06 9a 20 a6 1c 0a 3e 98 bd 97 bc
       -5.4012604e-28 2.6092792e-19 0.13487491 -0.018523023
0000d0 47 61 6a 3d 97 3f 8d bd 4f c8 8d bd dc 34 9a 3d
       0.057221677 -0.068968944 -0.069229715 0.075296134
0000e0 b7 79 2e 96 96 11 1b be 02 73 85 91 b6 15 01 80
       -1.4094014e-25 -0.15143427 -2.105458e-28 -9.9624e-41
0000f0 7c 4f d1 bc 7e 62 50 3d 33 f3 c1 3d 6f 59 93 bd
       -0.025550596 0.05087518 0.09470215 -0.071947925
000100 1f 53 76 bd 61 79 96 3d 6e 71 ba a3 82 25 6e 3d
       -0.060137864 0.0734737 -2.02142e-17 0.05814124
000110 f5 67 f5 12 f5 af dd a6 eb b1 d5 38 db a4 68 b4
       1.5487301e-27 -1.5382649e-15 0.00010189771 -2.1666658e-07
000120 58 58 07 ae ba 2c 39 ae 5b 9b 8d b8 21 70 76 ac
       -3.077391e-11 -4.2103855e-11 -6.752341e-05 -3.5020947e-12
000130 7b 6e 03 00 37 40 4b 38 7e e8 08 80 7a 31 04 00
       3.1514e-40 4.8458776e-05 -8.18086e-40 3.85091e-40
000140 50 e7 03 00 6e 31 06 00 bd 80 0a 00 67 4a 07 00
       3.58486e-40 5.68745e-40 9.64538e-40 6.69539e-40
000150 16 44 0c 00 65 ed 06 00 04 93 08 00 19 99 03 00
       1.12645e-39 6.36174e-40 7.87423e-40 3.30428e-40
000160 41 64 07 80 06 c9 00 00 bc 7a ac bc fc 2c 5b 3e
       -6.78813e-40 7.2114e-41 -0.021054618 0.21403879
000170 1a ab 52 3d 9c bc 90 be ea dc 13 bc 94 cc 5e 3e
       0.051432706 -0.28268898 -0.009024838 0.21757728
000180 46 fc c9 17 a7 e3 5d bd 2e 0b c9 91 55 8c 07 00
       1.3053003e-24 -0.054172184 -3.1719098e-28 6.9319e-40

model.mp.layer0.layer.model.lin_l.bias f4 [10]
000000 1d 58 19 ba ae 31 f7 bc 49 11 f3 3d c0 f5 0c be
       -0.0005849617 -0.030175056 0.11868531 -0.13765621
000010 fd 9e aa bd d6 6a 2b bd d8 6a 8a bc 5c 03 12 bd
       -0.08331106 -0.041849934 -0.01689665 -0.035647735
000020 e3 0b a6 9e 82 74 75 bc
       -1.758085e-20 -0.014981391

model.mp.layer0.layer.model.lin_r.weight f4 [10, 10]
000000 64 56 a1 39 e4 db f9 ba 8f 74 43 b9 04 08 14 b2
       0.0003077268 -0.0019062725 -0.0001864007 -8.616556e-09
000010 21 6a 23 ba ff 02 84 ba 60 7e 07 00 7c 49 1a bb
       -0.0006233771 -0.0010071694 6.88183e-40 -0.0023542335
000020 9d 77 04 00 cc 1f 09 80 b1 1b 3f be a6 f4 ba 3d
       4.10251e-40 -8.37926e-40 -0.18662907 0.09128694
000030 1b 5e 0c 3e 0a 46 6e be 36 98 89 bb 6a ed e5 bd
       0.13707773 -0.23268905 -0.004199053 -0.11226924
000040 54 a5 d9 97 09 65 56 3e 36 dc 5a 11 8f b4 c9 1b
       -1.4065031e-24 0.2093698 1.7265025e-28 3.3369344e-22
000050 58 43 45 3e f7 a7 e6 bb ed 6f 54 bd 1d 92 96 be
       0.19263971 -0.007039066 -0.051864553 -0.2940835
000060 27 e0 87 be 68 17 e1 bd 9f b5 f0 16 13 be 7e bd
       -0.26538202 -0.109907925 3.888871e-25 -0.062192988
000070 0b 10 e9 8e cb 98 00 00 87 37 c1 3d 80 f1 13 bf
       -5.7454383e-30 5.4812e-41 0.09434419 -0.57790375
000080 6e 45 a6 3e c2 20 38 3e cc 1d 5f 3e 4a 9b 8f be
       0.32474846 0.17981246 0.2178871 -0.28048164
000090 b7 7a 0b 17 76 ba 68 bd a3 42 61 12 bd fe c9 23
       4.506821e-25 -0.056818448 7.1079618e-28 2.190035e-17
0000a0 9e 38 5b bb 3f f2 5d 3e 55 11 89 bd ed d9 71 3e
       -0.0033450495 0.21674441 -0.06692759 0.23618288
0000b0 13 60 7f be 92 22 71 bd 7a 71 96 31 f4 cb 21 3e
       -0.24938993 -0.05887086 4.3784754e-09 0.15800458
0000c0 e8 d0 91 92 7c 22 78 26 71 8f 82 3e c4 ca a9 3d
       -9.202286e-28 8.608902e-16 0.25500062 0.082906276
0000d0 6c 8b 50 3a d5 b4 a2 be 8a 2e e7 bd d2 f0 91 bd
       0.0007955346 -0.3177859 -0.112881735 -0.07126011
0000e0 9f 1b a6 1a 47 09 3e 3c 74 90 0e 00 59 64 05 00
       6.8700615e-23 0.011598892 1.337517e-39 4.95175e-40
0000f0 08 e0 5b bc ec bd 58 3e b7 15 c8 bd 6b 8e 29 3d
       -0.013420112 0.211662 -0.09769767 0.041395586
000100 3b 13 aa bd 74 0e 2e 3d ce a9 b6 ac 1a 18 c6 3d
       -0.08304449 0.042494252 -5.1916032e-12 0.09672566
000110 d4 33 6d 92 10 e9 1b ad 1b 1e 36 a7 63 81 08 b9
       -7.4847897e-28 -8.86248e-12 -2.5273894e-15 -0.00013018171
000120 8f a6 d9 3b 96 49 51 ba 02 c8 32 3b 9c 38 7c 3b
       0.00664217 -0.00079836824 0.0027279858 0.003848589
000130 cf b2 09 80 70 74 50 ba 37 71 01 80 30 d8 08 00
       -8.90664e-40 -0.0007951921 -1.3245e-40 8.12237e-40
000140 05 b3 0c 00 6a d6 01 00 1c 4b 07 00 73 72 01 80
       1.166246e-39 1.68753e-40 6.69793e-40 -1.32892e-40
000150 2c af 03 80 42 3a 06 00 e7 1b 08 80 cd 45 00 80
       -3.38346e-40 5.71912e-40 -7.44693e-40 -2.504e-41
000160 47 29 0f 80 fd 8e 0b 80 25 59 66 bd 5c fa 12 3e
       -1.39234e-39 -1.061485e-39 -0.05623736 0.14353317
000170 fc 68 22 3e 56 7e 26 be ca 8e 6b bd 88 f7 a8 bd
       0.15860361 -0.16259131 -0.05750922 -0.08250338
000180 75 27 c2 18 70 aa 3a 3c 7b 5a 3e 12 09 e5 09 00
       5.0187666e-24 0.0113931745 6.0064955e-28 9.08682e-40

model.post_mp.layer_post_mp.model.0.model.weight f4 [1, 10]
000000 e1 ba 3f 3f 09 54 bf bf a9 9b 67 bf 87 ca 0d 40
       0.7489453 -1.494752 -0.90471894 2.2154863
000010 b4 b6 b5 3f f3 e5 b8 bf 59 78 d8 bf 06 cc 66 3f
       1.4196382 -1.4445175 -1.6911727 0.90155065
000020 26 f2 0f 13 aa 07 9a bf
       1.8168526e-27 -1.2033589

exp_avg f4 [10, 2]
000000 23 18 87 bb 39 1c de bc 9a 0a e6 3c cb 54 6d 3d
       -0.0041227504 -0.027113067 0.028081227 0.057942193
000010 fe 65 2d bb af 49 3b bb e1 61 ec bb 73 6b 15 3d
       -0.0026458497 -0.0028577854 -0.0072138165 0.036479425
000020 ad 18 b7 bb 45 aa b4 bc 7d a2 87 3b ad a4 be 3b
       -0.0055876584 -0.022053847 0.004139243 0.0058179707
000030 df 78 ad b5 51 e3 03 b7 06 ee 30 3c 28 7a 1e 3d
       -1.2924683e-06 -7.861135e-06 0.010798937 0.038690716
000040 93 72 eb 0c b7 43 04 99 d8 96 88 b3 cd 6b 85 b5
       3.627644e-31 -6.837915e-24 -6.360432e-08 -9.940646e-07

exp_avg_sq f4 [10, 2]
000000 9c 1f fb 38 e1 f4 45 3b f1 6f e1 3b fe a0 ec 3c
       0.000119745004 0.0030205774 0.0068797995 0.02888536
000010 34 48 1a 3a a5 a1 88 39 36 08 c4 3a 0d a1 b9 3c
       0.0005885393 0.00026060376 0.001495606 0.022659803
000020 fd d0 4f 3a c9 7e 9d 3b fd 46 a3 3a 7d 33 09 3a
       0.0007927565 0.0048063737 0.0012457069 0.00052338076
000030 e8 3d de 32 71 7c 87 36 89 e5 7d 3a 4d 70 e4 3b
       2.5872353e-08 4.0378004e-06 0.00096853875 0.006971395
000040 35 5e 9f 2f 50 ca e1 2f 3e 8b 95 32 70 e3 b2 33
       2.898887e-10 4.1071013e-10 1.7409203e-08 8.3301416e-08

exp_avg f4 [10]
000000 d2 dc 1c bc 49 f9 ec 3c 52 6a 35 bb 66 fe 07 3c
       -0.009574132 0.028927462 -0.002768178 0.008300399
000010 04 f0 04 bc 6f a2 b9 3b b3 9f d7 b6 58 d8 8d 3c
       -0.008113865 0.0056651155 -6.4260907e-06 0.017315075
000020 f4 3f 24 0d d1 c3 2f b4
       5.0613383e-31 -1.6369383e-07

exp_avg_sq f4 [10]
000000 72 5e c6 39 6c ca 08 3c 7c c9 47 3a 0d 90 8a 3b
       0.0003783587 0.008349042 0.0007621271 0.004228598
000010 67 a8 92 3a 82 ad d0 3a 34 3f d7 34 69 14 cf 3a
       0.0011189104 0.001592085 4.0092857e-07 0.0015798929
000020 c5 46 44 2e ff cb f6 32
       4.4628096e-11 2.8730936e-08

exp_avg f4 [10, 10]
000000 3f 36 8a b2 b5 5d 3f ac ac ee 38 a3 a1 7d 8b ab
       -1.6089983e-08 -2.719475e-12 -1.0025201e-17 -9.911413e-13
000010 cf 0c 0c b2 95 4f 61 a5 59 01 00 00 8e 62 e5 b1
       -8.151985e-09 -1.9542603e-16 4.83e-43 -6.6759815e-09
000020 90 00 00 00 9b 00 00 00 ea 0d e3 3a 46 ad cb 3a
       2.02e-43 2.17e-43 0.0017322872 0.001553931
000030 e5 c5 aa 3a c1 46 da 3a 03 a1 3a 3b 43 fa bb 3a
       0.0013028948 0.0016653166 0.0028477318 0.0014341552
000040 41 07 08 10 73 eb 51 3b 3b d1 ba 0a 4a 00 00 00
       2.682686e-29 0.0032031208 1.7989852e-32 1.04e-43
000050 23 da 38 bb 7d 4a ac ba ca 72 15 b9 32 fa 8a ba
       -0.0028206191 -0.0013144758 -0.0001425251 -0.0010603128
000060 09 5b 18 bb 16 80 1d b9 6c fb a8 92 59 82 5f bb
       -0.002324762 -0.00015020402 -1.0664271e-27 -0.0034104793
000070 58 10 1d 0b 9e 01 00 00 08 50 3e bc 8c 15 33 bc
       3.0249396e-32 5.8e-43 -0.011615761 -0.01093043
000080 51 08 6b bb 62 f2 02 bc 98 bf 47 bc 9a 28 9f bb
       -0.0035863111 -0.007992359 -0.012191676 -0.004857135
000090 53 48 7b 13 e6 93 98 bc 70 b3 e2 8c 2d 79 c0 0c
       3.1716313e-27 -0.018625211 -3.4928808e-31 2.9655214e-31
0000a0 d8 f3 88 3c 21 e1 b6 3b bf d0 10 ba 54 af a9 3b
       0.016717836 0.0055810367 -0.00055242697 0.0051783714
0000b0 8a 19 57 3c 28 e9 62 ba 6e e8 51 29 1b a7 97 3c
       0.013128648 -0.0008655959 4.6608923e-14 0.0185123
0000c0 8d f1 bd 8c 61 0e 7b 1b d0 9f c4 bb 9c 56 18 bb
       -2.926544e-31 2.076688e-22 -0.0060004964 -0.0023244983
0000d0 c9 bb 66 39 07 c0 02 bb 11 78 9b bb d9 a0 8d 39
       0.00022004465 -0.0019950883 -0.0047445376 0.00027013457
0000e0 98 76 48 91 c6 6d e5 bb e1 c0 33 0c 6c 00 00 80
       -1.5813763e-28 -0.0070016114 1.3847701e-31 -1.51e-43
0000f0 e8 92 7b bc 9f ba 55 bb a3 2d 36 39 ab ff b6 bb
       -0.015354849 -0.0032612456 0.00017373874 -0.005584677
000100 09 29 80 bc 36 32 ba 38 87 98 8e 9f 7c 03 8e bc
       -0.015644567 8.878524e-05 -6.0391675e-20 -0.017335646
000110 01 a4 50 8b 83 85 9a a1 fb 99 64 33 d9 f7 00 af
       -4.0182726e-32 -1.0470786e-18 5.322543e-08 -1.1729585e-10
000120 0a 07 a1 a8 4c 33 d8 a8 f7 14 18 b3 45 bb 13 a7
       -1.7877643e-14 -2.4003064e-14 -3.5409325e-08 -2.0501867e-15
000130 69 00 00 00 21 46 da 32 26 01 00 80 90 00 00 00
       1.47e-43 2.5410431e-08 -4.12e-43 2.02e-43
000140 86 00 00 00 cc 00 00 00 58 01 00 00 f4 00 00 00
       1.88e-43 2.86e-43 4.82e-43 3.42e-43
000150 94 01 00 00 e1 00 00 00 1c 01 00 00 7c 00 00 00
       5.66e-43 3.15e-43 3.98e-43 1.74e-43
000160 f4 00 00 80 19 00 00 00 2a c2 ae 3a bf c8 c5 3a
       -3.42e-43 3.5e-44 0.0013333012 0.0015089734
000170 68 32 68 3a f3 f2 97 3a 5b 76 03 3b 58 2e 85 3a
       0.0008857609 0.001159279 0.002005956 0.0010160906
000180 ab ac 20 93 f2 c2 1c 3b 32 25 00 0a fe 00 00 00
       -2.0279971e-27 0.0023919907 6.1699715e-33 3.56e-43

exp_avg_sq f4 [10, 10]
000000 53 f7 5d 32 5a 80 63 31 24 cb 96 30 4b d8 46 31
       1.2920128e-08 3.3105807e-09 1.0971672e-09 2.893574e-09
000010 98 60 68 32 7f 76 b2 30 71 4a b8 2c b4 2f 53 32
       1.352614e-08 1.2984883e-09 5.237859e-12 1.2292663e-08
000020 db d6 6c 2b b2 19 4f 2d eb bd 10 39 c8 b0 b8 38
       8.4142215e-13 1.1772293e-11 0.0001380366 8.806732e-05
000030 d7 bd ca 37 60 97 7e 38 f2 81 47 39 83 5b 15 38
       2.4168678e-05 6.0699298e-05 0.00019026527 3.5609595e-05
000040 5b 54 54 2e f4 2d a5 39 17 28 eb 2d 5e 76 a8 2e
       4.8278142e-11 0.0003150549 2.673421e-11 7.660782e-11
000050 47 fc 23 38 c1 a2 08 37 f7 9b 5a 35 81 71 54 37
       3.909718e-05 8.144126e-06 8.143829e-07 1.2662612e-05
000060 e9 64 67 38 15 61 9b 35 53 d8 45 2d 58 3c a0 38
       5.516867e-05 1.1576655e-06 1.1246187e-11 7.6406344e-05
000070 ea 56 39 2d 4b 6d 70 2d f3 ab 5a 3a a3 d6 e4 39
       1.0535331e-11 1.36666884e-11 0.00083416625 0.00043647466
000080 df d7 b9 38 11 54 b1 39 33 10 91 3a a2 09 0c 39
       8.8616966e-05 0.00033822705 0.001106745 0.00013355029
000090 8c 55 59 2e c0 b6 f4 3a 6c 24 22 2a 64 22 83 2f
       4.941607e-11 0.0018670186 1.4401127e-13 2.3853197e-10
0000a0 e9 ec 83 3a 57 41 91 39 69 44 e0 37 d7 11 b3 39
       0.0010065112 0.00027705237 2.6734737e-05 0.00034154832
0000b0 f7 82 b2 3a 9f 25 24 38 cb 41 24 30 1a a8 05 3b
       0.0013619353 3.9135684e-05 5.975635e-10 0.0020394386
0000c0 08 5d 9e 2b 86 5e e0 2f ea 27 31 39 2f 6f 1c 38
       1.1252397e-12 4.0812526e-10 0.00016894905 3.7296846e-05
0000d0 f2 f0 98 36 82 a5 61 38 7b 92 73 39 75 b7 d1 36
       4.5580027e-06 5.379832e-05 0.00023228854 6.2500426e-06
0000e0 47 4d c2 2e 84 1e a9 39 5c ac d5 2a 6f 85 f6 2e
       8.835826e-11 0.00032256928 3.7956e-13 1.12104874e-10
0000f0 9a 5a ae 3a bb d9 ed 39 5c e9 b0 38 55 b7 08 3a
       0.0013302148 0.00045366384 8.4358006e-05 0.0005215307
000100 41 f6 f8 3a 0d 98 e6 38 8a e0 a3 2f ec af 3b 3b
       0.0018994288 0.00010995576 2.9809072e-10 0.0028638793
000110 cd 6f 8f 2d a9 97 26 30 12 6b 79 32 37 9f a6 31
       1.6306867e-11 6.060597e-10 1.45180525e-08 4.8493365e-09
000120 f6 7b e3 30 bf 31 0d 31 dd 3c 54 32 b2 47 d2 30
       1.6551656e-09 2.0546478e-09 1.2353863e-08 1.5299888e-09
000130 30 cc b2 2d 70 b1 54 32 06 0a 1b 2c 18 3f 18 2c
       2.0326935e-11 1.2380369e-08 2.203239e-12 2.1635523e-12
000140 52 22 5a 2e ec 8c 0f 2d 56 a6 93 2c cb 7c ff 2d
       4.9597944e-11 8.1599e-12 4.1964583e-12 2.9045563e-11
000150 f7 a2 d8 2e f0 0b ad 2d e4 9a d7 2d 47 7c cd 2e
       9.851491e-11 1.9673124e-11 2.4511455e-11 9.344397e-11
000160 9c f5 08 2c fc 37 00 2e 35 a6 21 38 45 ee b3 37
       1.9463103e-12 2.9153555e-11 3.8540184e-05 2.1449416e-05
000170 2a 90 8a 36 7a 2f 80 37 85 b3 52 38 e3 3c dd 36
       4.1295034e-06 1.5280897e-05 5.0235092e-05 6.5934014e-06
000180 d1 53 58 2e 7e 48 b4 38 71 b1 5e 2a a7 2a 77 2d
       4.9187158e-11 8.5965716e-05 1.9779123e-13 1.4049795e-11

exp_avg f4 [10]
000000 1d c2 9e b4 6a 84 cd 3b 42 f9 b3 bb 1e 87 4f bd
       -2.957103e-07 0.0062718885 -0.0054923603 -0.050665967
000010 af c9 24 3d 42 9d 4a bc 6f 38 02 bd bc e7 96 b7
       0.040231403 -0.012366595 -0.0317921 -1.7989303e-05
000020 cf 21 84 99 ea de 4d 3b
       -1.3662135e-23 0.0031413385

exp_avg_sq f4 [10]
000000 b9 90 61 34 1c 23 84 3b 03 a7 90 39 2c c3 52 3c
       2.1007408e-07 0.0040325057 0.00027590254 0.012863915
000010 44 40 f5 3b a6 b2 8e 3a a8 6c 53 3c ef 8e 9e 34
       0.0074844677 0.0010886982 0.012904324 2.953379e-07
000020 36 d7 e9 2f b6 77 cb 39
       4.253537e-10 0.0003880837

exp_avg f4 [10, 10]
000000 47 e8 27 34 08 66 85 b5 a4 03 f5 b3 b4 af ad ac
       1.5637589e-07 -9.938967e-07 -1.1409364e-07 -4.9364627e-12
000010 69 b5 ac b4 ff 3f 17 b5 fe 00 00 00 e2 9c a1 b5
       -3.216949e-07 -5.634501e-07 3.56e-43 -1.2041094e-06
000020 91 00 00 00 30 01 00 80 fe 63 0f ba 78 c5 5c 39
       2.03e-43 -4.26e-43 -0.0005469917 0.00021054398
000030 54 ad 8e 3b 2b b0 41 3b 22 8f 2b 3b 54 1b 23 3b
       0.0043541584 0.0029554467 0.0026177843 0.0024888115
000040 33 cb e4 93 06 a8 03 3b 9d fb 45 0c 17 63 b5 16
       -5.775566e-27 0.0020089163 1.5252045e-31 2.9304662e-25
000050 b0 48 7b bb 1a 4b 15 bb 75 b7 2c 38 80 22 90 b9
       -0.0038342886 -0.002278036 4.1178853e-05 -0.00027491525
000060 fc 57 58 ba d8 63 0a 39 56 00 e0 10 f1 f4 62 bb
       -0.0008252857 0.000131979 8.835294e-29 -0.003463086
000070 7c 40 b3 88 18 00 00 00 a9 d2 50 bc 21 6c a9 bb
       -1.0788331e-33 3.4e-44 -0.012745538 -0.0051703607
000080 93 3b c6 bb 7a 21 97 bc 59 74 e8 bc 14 66 7a bb
       -0.0060495823 -0.01844858 -0.028375791 -0.0038207816
000090 62 e2 b6 0f 7d d8 e7 bc a5 64 8c 0c 20 d5 96 1e
       1.8033785e-29 -0.028301472 2.1630989e-31 1.5970014e-20
0000a0 95 d8 dd 3c d9 eb 5e 3c 04 01 16 3a ad 53 31 3a
       0.027080813 0.013606035 0.0005722197 0.0006764483
0000b0 18 a3 08 3c 27 3f e7 3a 9f ca 43 2c 17 8d b8 3c
       0.008339666 0.0017642722 2.7823644e-12 0.022528214
0000c0 71 9f 70 8d 4f f1 2f 21 e4 93 08 bc c3 e0 8c bb
       -7.414763e-31 5.9611676e-19 -0.008336041 -0.0042992546
0000d0 d2 22 d1 34 fe 9f ec b9 c6 3f 29 bb dd 64 35 b7
       3.895462e-07 -0.0004513263 -0.0025825365 -1.0811925e-05
0000e0 f7 74 e5 95 2b 32 ee bb e4 01 00 00 af 00 00 00
       -9.26769e-26 -0.007269164 6.78e-43 2.45e-43
0000f0 23 34 a9 bc 99 b0 4b bc 03 11 88 bb f3 c7 86 b9
       -0.020654744 -0.012432241 -0.0041524186 -0.00025707445
000100 58 3a 81 bb 0e 3f 8f bb ea ba 8b a7 c8 88 85 bc
       -0.0039437227 -0.0043715304 -3.8782903e-15 -0.016300574
000110 d0 38 b3 0a 40 31 c3 a7 12 d9 e8 a1 13 22 92 b3
       1.7258443e-32 -5.417677e-15 -1.577839e-18 -6.804853e-08
000120 ea 58 62 36 34 0b dc b4 56 f9 bb 35 0f de 03 36
       3.372838e-06 -4.0986345e-07 1.4005152e-06 1.9649776e-06
000130 44 01 00 80 8a b4 da b4 36 00 00 80 1d 01 00 00
       -4.54e-43 -4.0737024e-07 -7.6e-44 4e-43
000140 a8 01 00 00 40 00 00 00 eb 00 00 00 36 00 00 80
       5.94e-43 9e-44 3.3e-43 -7.6e-44
000150 7c 00 00 80 cc 00 00 00 12 01 00 80 0e 00 00 80
       -1.74e-43 2.86e-43 -3.84e-43 -2e-44
000160 ef 01 00 80 80 01 00 80 57 9b d5 3a 44 fe 54 3a
       -6.94e-43 -5.38e-43 0.0016296905 0.0008125047
000170 c1 36 78 3a d4 8c 3b 39 96 4e 21 3a 86 db e7 39
       0.0009468608 0.00017886172 0.0006153373 0.0004422331
000180 74 c0 36 93 57 e8 b4 3a 58 9e a2 0c 44 01 00 00
       -2.3066516e-27 0.0013802153 2.5055352e-31 4.54e-43

exp_avg_sq f4 [10, 10]
000000 1c 5f d2 33 7d 35 87 32 59 9d 90 30 30 f8 04 31
       9.796187e-08 1.5740392e-08 1.05221e-09 1.9349606e-09
000010 69 c5 e6 32 4a c9 36 31 1e e3 e1 2a c2 a5 5a 33
       2.6865296e-08 2.6598905e-09 4.0125623e-13 5.0907836e-08
000020 ed bb dd 2d 79 44 82 29 a8 d0 7d 39 dd cf 26 39
       2.5208247e-11 5.785038e-14 0.0002420569 0.00015908429
000030 2f 67 46 3a 89 5f 2d 3a 44 ad 70 3a c3 ad c2 39
       0.0007568476 0.0006613662 0.0009181092 0.00037132026
000040 85 54 b3 2e 34 7b 7c 3a 0d 02 5e 2b 74 2c c6 2f
       8.154991e-11 0.0009631396 7.887309e-13 3.6047576e-10
000050 0a e1 eb 38 cd 2e 4f 38 3c 25 33 33 19 22 4e 35
       0.0001124759 4.9396232e-05 4.171055e-08 7.67906e-07
000060 f1 67 93 37 3f fe ab 35 2a 38 ca 2c ac e6 c2 38
       1.7572167e-05 1.2814488e-06 5.7474208e-12 9.293607e-05
000070 bc 29 11 2c 62 05 2c 2e e2 b0 71 3a 42 3d 4f 39
       2.0628907e-12 3.9113053e-11 0.0009219778 0.00019763879
000080 ac 7e 1e 3b 1c 0d 0c 3b 32 16 5c 3b af f0 97 3a
       0.002418439 0.0021370118 0.0033582565 0.0011592115
000090 5b a7 a0 2d b6 19 56 3b cf 45 66 2c 46 65 06 30
       1.8264215e-11 0.0032669134 3.2723717e-12 4.8892834e-10
0000a0 28 83 07 3b ea d0 8a 3a 80 db ed 39 16 cc e9 39
       0.002067754 0.0010590826 0.00045367703 0.0004459328
0000b0 ac 87 58 3a 72 ee f0 39 7d 4e 64 30 f0 5e 1b 3b
       0.0008259963 0.00045954023 8.3057455e-10 0.002370771
0000c0 f7 30 92 2b f0 b7 1c 30 14 d9 ea 39 67 eb 3b 39
       1.0387514e-12 5.701386e-10 0.00044793694 0.00017921404
0000d0 a6 37 4f 33 ee 1f 99 36 bb 29 9d 38 ae 61 f6 35
       4.8246555e-08 4.5634724e-06 7.494116e-05 1.8356857e-06
0000e0 bb 8f 46 2f 7e 07 c6 39 7e 1f 82 2d 74 a8 eb 2e
       1.8059058e-10 0.00037771085 1.4793274e-11 1.0716486e-10
0000f0 e8 b0 c6 3a 1f b6 f7 39 03 b9 bf 3a 61 9e e0 3a
       0.0015158923 0.00047247202 0.0014627281 0.0017137044
000100 56 9c 5e 3b b6 af 4e 3a e2 88 fd 2f 85 af 77 3b
       0.0033967695 0.00078844593 4.6117693e-10 0.0037793827
000110 a2 ea bc 2d 22 f2 91 30 2d 85 7d 30 f3 d9 71 32
       2.1477323e-11 1.0618957e-09 9.223012e-10 1.4077602e-08
000120 24 5d e6 33 2e ec 22 33 3c a8 22 33 f4 85 7f 33
       1.0727152e-07 3.793337e-08 3.7871573e-08 5.9493644e-08
000130 94 48 3e 2d 75 69 3f 33 a8 40 5e 2d 35 f1 ac 2a
       1.0816365e-11 4.4566566e-08 1.26335956e-11 3.0720709e-13
000140 e1 42 26 2d d3 98 7c 2d 37 cc 16 2e 08 22 71 2e
       9.450858e-12 1.4358475e-11 3.428743e-11 5.482728e-11
000150 6f 66 00 2f ef a6 5c 2d 96 3d f5 2a 16 d2 f4 2e
       1.1677924e-10 1.2542619e-11 4.3563476e-13 1.1133154e-10
000160 48 c7 9a 2c 7d ae 1a 2d ce 03 68 38 3c 89 f7 38
       4.399068e-12 8.792631e-12 5.5316654e-05 0.0001180344
000170 05 9a 56 38 70 20 af 37 4b c0 2c 37 40 37 8c 38
       5.1165018e-05 2.087673e-05 1.0296771e-05 6.686011e-05
000180 b1 eb 88 2e 38 7d 9d 38 43 c0 ab 2b 39 45 15 2d
       6.226431e-11 7.509667e-05 1.2203644e-12 8.48504e-12

exp_avg f4 [1, 10]
000000 f0 32 8e 3a 83 b9 49 3a 81 fd 8d 3a 21 06 fd b9
       0.0010848921 0.0007695185 0.0010832996 -0.00048260487
000010 0a 0a 2e 3b 1d ed 96 3a f7 ae 51 3a 91 95 89 3a
       0.0026556277 0.0011514757 0.0007998789 0.0010496845
000020 92 22 a4 8c 7c 4a 8b b8
       -2.5289007e-31 -6.64191e-05

exp_avg_sq f4 [1, 10]
000000 3f 05 90 37 4e 97 bc 37 85 4a 18 37 32 21 c9 37
       1.716858e-05 2.2481803e-05 9.077256e-06 2.3976525e-05
000010 67 81 04 38 92 3f 64 37 90 a9 16 38 06 06 b5 37
       3.1591768e-05 1.360466e-05 3.5920704e-05 2.1579686e-05
000020 5f bd 85 2a ef 1d 4c 36
       2.3756949e-13 3.0415792e-06
