saved_results/yeast-LCQ-gcnconv-with-mRNA/0/ckpt/epoch=299-step=300.ckpt (torch, 11866 bytes, 15 tensors)

model.pre_mp.Layer_0.layer.model.weight f4 [10, 2]
00000000: af6e 3cbf 5d19 bd3e 97e9 5cbc 78b2 9c3e
00000010: 76bb b2bd 8005 1ebe 9268 2fbe d6c2 3dbd
00000020: 3467 1dbf c9b2 a0bc 70b0 3c3f c378 203e
00000030: d1ca 9abe f252 eb3e 9d44 c9be 6527 46bc
00000040: 1173 ae3e 9fc9 19be eeb6 6bbe d9d6 ebbe
-0.7360639 0.36933413 -0.0134834265 0.3060491 -0.087271616 -0.15431786 -0.17129734 -0.04632839
-0.614856 -0.019616501 0.7370672 0.15671067 -0.30232862 0.4596172 -0.3931016 -0.012094353
0.34072164 -0.15018319 -0.23019001 -0.46062353

model.pre_mp.Layer_0.layer.model.bias f4 [10]
00000000: 93e6 73be b0ba 9dbe f7c8 7532 d427 cd3e
00000010: b24b 263f 92ec 54be 8998 1f3e 5b4c c7be
00000020: e362 553c db95 013f
-0.23818426 -0.30806494 1.4306571e-08 0.4006945 0.6495925 -0.2079337 0.15585531 -0.38925442
0.013024065 0.50619286

model.mp.layer0.layer.model.bias f4 [10]
00000000: da1c e13b b777 29be 828f c9bd c270 d1bd
00000010: b89e e13d 61b7 cdbd 7299 47bd 49c4 7fbc
00000020: ea07 9bbd 0be2 87bc
0.0068698945 -0.16549574 -0.09841825 -0.10226585 0.11016601 -0.100447424 -0.04873032 -0.015610763
-0.07569869 -0.016587278

model.mp.layer0.layer.model.lin.weight f4 [10, 10]
00000000: 24de 2bbe c29c e4bb 0655 c7bd cdc8 0dbe
00000010: 081b 753c 7131 3ebd e60c 87bc 5269 77b8
00000020: ac87 053e e3dc fb3c cc79 013f 4ddb a63e
00000030: 7695 72be 0986 c6bd 5451 0c3e b137 a83d
00000040: 0d60 943d aafe 0eb1 6967 3abe 0618 6a3e
00000050: fe8a 73bd 8c3d 45be 84e8 15be acf6 96be
00000060: 5e7f 07bf d65a ef3e fe7f f83e 30c6 4cbe
00000070: c29c 29be 2a46 1f3e 7724 a2bd 719b 0b3f
00000080: f2be 7ebd 5ab3 12be 2218 02bf 7f84 d63b
00000090: db6b d83e 63b8 bd35 7eb6 b2be 0b4e 483e
000000a0: 2e44 58be afab 923d 92c4 8c3e 6287 8e3e
000000b0: 457d ff3e 5a24 efbe 87af b5be e450 8cbe
000000c0: 226b 8d3e 5949 1abc 68c6 393d 871b 08be
000000d0: 0880 7cb1 4921 a03e 14c9 fdbd bca1 633e
000000e0: eda7 98be 5083 0e32 f201 94bd b567 80be
000000f0: 8ae3 90be 1390 70bc 6355 88be a1c6 9e3e
00000100: 406a 86be 727a 33bd a490 4ebd 2511 89be
00000110: 4e12 75be 5325 f23c cd7a c53c c6b7 c83d
00000120: 155f 933b 5faa b53d b7ea 0e3e 4cdc a43b
00000130: 5685 5bbe bf3e 173d 1bb7 a3ba 4edd f93c
00000140: f099 ee3c 279a fcbc 11b2 1c3e 4606 c03e
00000150: b31a dabe d78e c6be b770 c53d 4bcb ceb0
00000160: 2adc 15bd f3b8 d6be 89c1 cebc 0c83 37bb
00000170: 98c4 483e a427 1fbe 1788 163c 9b89 153a
00000180: bea8 ebba 59c4 123d 3bdf 703e e800 633e
-0.16783959 -0.006976695 -0.09733014 -0.1384613 0.014960058 -0.04643387 -0.016485643 -5.8987476e-05
0.13040036 0.030744975 0.5057647 0.32589188 -0.23689827 -0.09693534 0.13702899 0.08213747
0.07244883 -2.080848e-09 -0.1820351 0.22860727 -0.059458725 -0.1926176 -0.14639479 -0.2948507
-0.5292872 0.4674899 0.4853515 -0.19997478 -0.16563705 0.15554109 -0.07917111 0.5453406
-0.06219382 -0.1432623 -0.50818074 0.0065465565 0.42269787 1.4135261e-06 -0.34904855 0.19561021
-0.21119758 0.07161652 0.2749372 0.27837664 0.4990026 -0.46707422 -0.3548548 -0.27405465
0.27620798 -0.0094169015 0.04535523 -0.13291751 -3.6743604e-09 0.31275395 -0.12391868 0.22229666
-0.29815617 8.295345e-09 -0.072269335 -0.25079122 -0.282986 -0.0146827875 -0.26627645 0.31010917
-0.26252937 -0.043817945 -0.05043091 -0.26770893 -0.23932764 0.029558813 0.024106408 0.09800677
0.0044974186 0.08870386 0.13956724 0.0050311442 -0.21437582 0.036925074 -0.0012490483 0.030501034
0.029126137 -0.030835224 0.15302302 0.37504786 -0.42598495 -0.38780853 0.09640639 -1.5046252e-09
-0.036586918 -0.4193798 -0.02523877 -0.0028001694 0.19606245 -0.15542465 0.00918772 0.0005704404
-0.0017979366 0.035831783 0.23522656 0.22168314

model.post_mp.layer_post_mp.model.0.model.weight f4 [1, 10]
00000000: 1e4e b63d baaf c73e dcaa b83e ff2c 8b3e
00000010: 64a2 11bf 39ca e43e 63ff 8f3e 8c65 50bd
00000020: deb8 073b 182f 74bd
0.089016184 0.39001256 0.36067855 0.27182767 -0.56888413 0.44685534 0.28124532 -0.050878093
0.0020709555 -0.059615225

exp_avg f4 [10, 2]
00000000: b9cd 0bba 9fbe ec3b 55f7 c9bb 126f 0f3b
00000010: 1f60 41b8 b532 a8b8 0857 213b 2ecf 4b3c
00000020: dfdb 5b3c b9db fe38 e614 91ba feb4 8bbb
00000030: 58a8 ce3a 207d 793c ff2c 52b9 177d e8b6
00000040: 1657 963b 9e35 e93b 1caa aeba c928 98bb
-0.0005333084 0.0072248722 -0.0061635175 0.0021886271 -4.6104306e-05 -8.020309e-05 0.0024618525 0.012439532
0.013419121 0.0001215259 -0.001106885 -0.0042635193 0.0015766723 0.015227586 -0.00020043923 -6.928701e-06
0.004588018 0.0071169874 -0.0013325843 -0.004643534

exp_avg_sq f4 [10, 2]
00000000: 4492 1935 adad b337 6f9b 7436 7bb6 7f37
00000010: c85e 2631 68a6 a131 8f4e 2337 93f6 a938
00000020: c236 0d38 9993 0f39 deb0 ed36 5480 9938
00000030: 305a 8736 22b1 6438 1beb 9632 0e79 0630
00000040: d413 9637 3ee4 9738 e70d c733 4c65 6d36
5.7209786e-07 2.1419337e-05 3.6449308e-06 1.52416715e-05 2.4210056e-09 4.704635e-09 9.733848e-06 8.104476e-05
3.3668017e-05 0.00013692527 7.0837405e-06 7.3195115e-05 4.0338127e-06 5.4524404e-05 1.7569212e-08 4.8920945e-10
1.7890627e-05 7.2427545e-05 9.2691884e-08 3.5374715e-06

exp_avg f4 [10]
00000000: 1861 823b b840 ae3a 352b 112d b871 973c
00000010: 2bfb 0cbc 1cb7 cc3b 4212 5b3c 9626 50b9
00000020: 328c 903b 4834 debb
0.0039788596 0.0013294434 8.25189e-12 0.018486843 -0.008604805 0.0062474143 0.013371052 -0.000198508
0.004411244 -0.0067811348

exp_avg_sq f4 [10]
00000000: 8321 0137 a79b 4736 c847 0d2d 9532 5e38
00000010: feca 2539 3cfd c737 f246 7438 2aa2 9432
00000020: 5938 ca37 ff9a 0637
7.696802e-06 2.9743912e-06 8.030861e-12 5.2976033e-05 0.00015811247 2.384057e-05 5.8240206e-05 1.7303211e-08
2.4106515e-05 8.02311e-06

exp_avg f4 [10]
00000000: baf0 8939 bf52 99ba b537 e3bb 4882 6539
00000010: 5b56 d13b e5cd 0639 b865 003a 59a7 deb9
00000020: 2a70 f4b8 ea80 37b9
0.00026310032 -0.0011697634 -0.006934131 0.00021887675 0.006388468 0.00012855938 0.000489797 -0.00042467823
-0.00011655719 -0.00017500264

exp_avg_sq f4 [10]
00000000: 2e4e 4636 dd66 b438 cfa2 6339 f829 c038
00000010: bd82 053a 146d 3035 4e87 5637 255c 1333
00000020: d9f0 3d38 7622 8f32
2.9549806e-06 8.6022286e-05 0.00021709058 9.163091e-05 0.0005093029 6.572384e-07 1.2786897e-05 3.430991e-08
4.528542e-05 1.6663062e-08

exp_avg f4 [10, 10]
00000000: d580 adb8 2f2e 21b6 75ee 56b8 73d8 81b8
00000010: 2dc3 7038 7c0d 76b7 fe06 0b38 1e5f 5bb3
00000020: faca 9c38 60e6 6d38 0975 5039 621f b7ba
00000030: f2a7 ffb8 7b56 0539 49ed 043b ae28 60bb
00000040: 3353 e7ba dfef 18ac 9238 16ba 6a55 023a
00000050: cc36 b1ba 1a7e 0abb 97c7 9fb8 9e47 25bb
00000060: d777 55bb f929 68bb 4c67 8dbb d89a d8b8
00000070: 6233 63ba b774 f9b9 bee6 453a 0a92 713a
00000080: 6061 0bb8 f4a6 40ba 373d 54ba 7551 87b9
00000090: d2f4 5c3a 7abc 4c30 4adc f9b9 dbba 40b9
000000a0: 408e a738 2c0b c63a 90e9 1339 aa9a 343b
000000b0: c524 363b 7d84 8c3b 68a0 623b 5672 13b9
000000c0: f00f a53a cab1 413a b142 ae38 8dc5 1fb8
000000d0: 50df 742c 8277 8539 bc15 62b8 9fc2 0939
000000e0: f9ce 1db9 761c 7c2d e2b6 15b8 aa0d f1b8
000000f0: 06bc 05b9 5137 98b5 8057 0fb9 6f74 b139
00000100: fd23 07b9 53ca 45b7 996a b438 0c19 10b9
00000110: 0f8b fab8 d7be 9c38 4f06 bcb7 2920 1c38
00000120: 523e 3636 397a d6b8 985d 04b9 2481 bbb6
00000130: e01e 5ab9 f3c9 a837 ebc5 adb5 650b c1b8
00000140: 76fc cfb6 8857 b7b7 9fd2 a638 4859 2a39
00000150: aec4 5fb9 ed7e 4eb9 c519 a8b7 9c4e 3f2a
00000160: aeea 92b7 3b89 64b9 5fe9 82b7 fc12 8335
00000170: 7576 d438 93a4 b8b8 e0cf 20b8 eb66 80b6
00000180: 72f3 c8b8 5afd a337 6135 fd38 523e 4d38
-8.27328e-05 -2.4017752e-06 -5.1243656e-05 -6.191516e-05 5.740223e-05 -1.4665882e-05 3.3146694e-05 -5.107642e-08
7.476467e-05 5.6719757e-05 0.00019880025 -0.0013971145 -0.0001219063 0.00012716085 0.0020283035 -0.0034203934
-0.0017648697 -2.1733654e-12 -0.00057304755 0.0004971834 -0.0013520359 -0.0021132291 -7.618887e-05 -0.002521969
-0.003257265 -0.0035425408 -0.0043152925 -0.000103285245 -0.00086670194 -0.0004757994 0.0007549337 0.0009215182
-3.323087e-05 -0.00073490967 -0.000809628 -0.00025809897 0.0008428815 7.448261e-10 -0.0004765711 -0.00018380156
7.989677e-05 0.0015109531 0.00014106021 0.0027558007 0.0027792912 0.004288255 0.0034580473 -0.00014061606
0.0012593251 0.00073888584 8.309389e-05 -3.8092538e-05 3.4798449e-12 0.00025456777 -5.390284e-05 0.0001313784
-0.0001504979 1.4330861e-11 -3.569469e-05 -0.00011494321 -0.00012753913 -1.1340982e-06 -0.00013670139 0.0003384682
-0.0001288801 -1.1789222e-05 8.602924e-05 -0.00013742241 -0.00011946831 7.474206e-05 -2.2414284e-05 3.722325e-05
2.7156389e-06 -0.00010227081 -0.00012623367 -5.5880682e-06 -0.00020801602 2.01212e-05 -1.2947106e-06 -9.2050796e-05
-6.198471e-06 -2.185606e-05 7.954728e-05 0.00016245723 -0.00021340206 -0.00019692974 -2.003916e-05 1.6991481e-13
-1.7513838e-05 -0.00021794897 -1.560588e-05 9.765786e-07 0.00010131012 -8.804458e-05 -3.834057e-05 -3.8266785e-06
-9.5820884e-05 1.954909e-05 0.00012073923 4.893385e-05

exp_avg_sq f4 [10, 10]
00000000: 6474 5633 0e85 a230 a966 3b31 d02a 1e34
00000010: eadf 8332 d965 e032 f9e2 c034 8a6a be2e
00000020: 684e 2733 3ab0 8b31 2dc0 0136 5adb 6735
00000030: 63dc 0e32 1e22 ce36 efea b336 9899 c836
00000040: 161e b537 5aea f92b ddec 2235 fcee 7334
00000050: dfe6 8636 693e c235 e557 9731 e233 5137
00000060: d49f f436 d392 2337 3265 3338 937c e231
00000070: c12c aa35 26c9 7034 c801 5036 6fd0 1e35
00000080: a75e eb30 bb66 b136 0652 1136 5a23 6d36
00000090: 2637 a737 bd9a 552e b245 9535 195f 0934
000000a0: 631c 3837 7190 3f36 848e 3032 982a 0a38
000000b0: a70f 8937 bf2a c637 af58 e538 f8bc 2f32
000000c0: fa6b 8b36 e497 2535 811b a132 5fcf 4f31
000000d0: 500b a32c f9f1 bb33 9d94 6331 a08d 4832
000000e0: 4b3a ac32 02c7 402d 08e4 2c31 b110 db31
000000f0: 7d1a 3234 a285 f52e ba99 2832 351f 5e35
00000100: a68a b532 426d eb31 6bbc 9635 abe7 2932
00000110: 2510 c933 e9ce 9b33 606d db2f 1f5c 3a31
00000120: 2cf9 a02f e10b f831 bc99 2f32 68bb c92e
00000130: ff2c 2a32 0561 9330 de1c 2f2f ff96 1a31
00000140: 50c2 2836 fb43 2934 51f2 9f31 0d19 b236
00000150: c7e3 a734 2841 b935 c632 7637 e296 192a
00000160: 3e13 6735 ac5b 5033 5cc9 4630 a2ca bc2b
00000170: 2591 dc31 c44f a431 f8a3 5230 d8bd a82e
00000180: 4ffc 1631 8cc5 8f30 3bd8 1832 75d9 0832
4.9931614e-08 1.1824868e-09 2.7270437e-09 1.4730472e-07 1.5352231e-08 2.6123347e-08 3.592793e-07 8.659125e-11
3.8954028e-08 4.065467e-09 1.933436e-06 8.6373404e-07 8.315598e-09 6.14325e-06 5.3619656e-06 5.978345e-06
2.1590891e-05 1.775756e-12 6.0694384e-07 2.271808e-07 4.020388e-06 1.447229e-06 4.404671e-09 1.2469451e-05
7.290373e-06 9.749742e-06 4.277117e-05 6.591628e-09 1.2679012e-06 2.2424919e-07 3.0995452e-06 5.91629e-07
1.7125402e-09 5.2869705e-06 2.1654428e-06 3.533633e-06 1.9933632e-05 4.8568028e-11 1.1121649e-06 1.2793716e-07
1.0973864e-05 2.8545294e-06 1.0276953e-08 3.2941432e-05 1.6338961e-05 2.3623345e-05 0.000109360895 1.0229307e-08
4.155093e-06 6.168832e-07 1.8755374e-08 3.0240341e-09 4.6339946e-12 8.7518806e-08 3.3117324e-09 1.1673734e-08
2.0049944e-08 1.0958125e-11 2.5158915e-09 6.3756365e-09 1.6587178e-07 1.1165048e-10 9.81384e-09 8.2746857e-07
2.1134223e-08 6.8518213e-09 1.1230708e-06 9.88977e-09 9.3627285e-08 7.255387e-08 3.9913584e-10 2.7118927e-09
2.9280878e-10 7.2191004e-09 1.0221296e-08 9.173712e-11 9.905533e-09 1.0723232e-09 1.5926413e-10 2.249578e-09
2.5147056e-06 1.5764083e-07 4.6550572e-09 5.3077297e-06 3.1271904e-07 1.3802537e-06 1.4674564e-05 1.3641478e-13
8.6082207e-07 4.851215e-08 7.231813e-10 1.3414445e-12 6.4193437e-09 4.7820965e-09 7.663057e-10 7.6734785e-11
2.1971294e-09 1.0460766e-09 8.89673e-09 7.965686e-09

exp_avg f4 [1, 10]
00000000: b9a9 e4bb df89 30bd bf0a 20bd 7d17 64bb
00000010: b42d aa3d caea 00bd 26cf ceba 197b eb39
00000020: 77bf bdba bb4d 623c
-0.0069782403 -0.043100234 -0.03907275 -0.003480404 0.083094984 -0.031473912 -0.0015778288 0.00044914408
-0.0014476617 0.013812478

exp_avg_sq f4 [1, 10]
00000000: 83e0 de37 80d8 5f39 e86b ca39 64f4 b337
00000010: e36d aa3a c485 4d39 3111 8437 f16e 8532
00000020: a28f 0139 3918 3838
2.6569009e-05 0.0002134759 0.0003860884 2.1452266e-05 0.001300272 0.00019600155 1.5743632e-05 1.5533688e-08
0.00012355906 4.3891578e-05
