saved_results/yeast-SAGEConv-best-model/yeast-graphsage-ORBI/0/ckpt/epoch=199-step=3200.ckpt (torch, 13902 bytes, 18 tensors)

model.pre_mp.Layer_0.layer.model.weight f4 [10, 1]
0	0x3f0d27e5	0.55139
1	0xbf66af3a	-0.90111125
2	0x3f1f2386	0.6216358
3	0xb0393337	-6.737539e-10
4	0xbe999fb1	-0.30004647
5	0xa0b5cd6d	-3.0798532e-19
6	0xbcced77e	-0.025249239
7	0xbef2304c	-0.47302473
8	0x3ecbb4a5	0.39786258
9	0xb546e63d	-7.409579e-07

model.pre_mp.Layer_0.layer.model.bias f4 [10]
0	0xbf0e3e9d	-0.5556429
1	0x3f6817c0	0.9066124
2	0xbee6f5c2	-0.45109373
3	0xa8a5de7a	-1.8415164e-14
4	0x3e9d6df2	0.30747944
5	0xb7901a89	-1.7178494e-05
6	0xbcc83938	-0.024441347
7	0x3ef46705	0.47734848
8	0x3c894ec5	0.016761193
9	0x9e48b9e9	-1.0626357e-20

model.mp.layer0.layer.model.lin_l.weight f4 [10, 10]
0	0x3dfa0ef9	0.12209887
1	0xbe3f2666	-0.18666992
2	0x3c574d13	0.0131409345
3	0x80427e2a	-6.106402e-39
4	0x3de67b77	0.11254018
5	0x8006f197	-6.37679e-40
6	0x3bc79891	0.0060911854
7	0x3db54d50	0.08852637
8	0x3e054898	0.13015974
9	0x985e04d1	-2.869526e-24
10	0x92de0547	-1.4011471e-27
11	0x000137d4	1.11863e-40
12	0xaf829a24	-2.3756386e-10
13	0x000671de	5.91861e-40
14	0xab518551	-7.443673e-13
15	0x0000ca06	7.2472e-41
16	0x0007498e	6.69235e-40
17	0x9e4da740	-1.0887196e-20
18	0x0002b50d	2.4862e-40
19	0x8002d949	-2.61618e-40
20	0x0001169d	9.9948e-41
21	0x00d42d0e	1.9485288e-38
22	0x800bd4d9	-1.086546e-39
23	0x8007409a	-6.66023e-40
24	0x0009fec7	9.17916e-40
25	0x00009a12	5.527e-41
26	0x8006ef2f	-6.36816e-40
27	0x80003d1c	-2.1922e-41
28	0x00043147	3.8502e-40
29	0x0005b436	5.23825e-40
30	0x0000eb0b	8.4318e-41
31	0xbc3b7b5d	-0.011442986
32	0xbb9bf15e	-0.004758998
33	0x80050c32	-4.63552e-40
34	0xbadbfa5d	-0.0016782988
35	0x80026699	-2.20476e-40
36	0x800a58cf	-9.50213e-40
37	0xbbb7a904	-0.005604865
38	0xbc727deb	-0.014800529
39	0x000bf863	1.099295e-39
40	0xbe5e40c8	-0.217044
41	0x3dfd29ce	0.12361489
42	0xbe963dbd	-0.29343978
43	0x8002d0b6	-2.58542e-40
44	0xbe805228	-0.2506268
45	0x00329d08	4.648107e-39
46	0x3cc2d46c	0.023782931
47	0xbe82a5c9	-0.2551711
48	0x3beabe99	0.0071638343
49	0x180ce962	1.8212404e-24
50	0x000a3010	9.35597e-40
51	0xbc1ba447	-0.009499616
52	0xbae0078f	-0.0017092096
53	0x0001682c	1.29205e-40
54	0xba8352d0	-0.0010019187
55	0x80006af3	-3.8366e-41
56	0x80038561	-3.23354e-40
57	0xbb681b3e	-0.0035416628
58	0xbbe62c8f	-0.0070243548
59	0x000ceb9b	1.186545e-39
60	0xb919df16	-0.00014674323
61	0x371babf9	9.27876e-06
62	0x3bb4ae7e	0.005513965
63	0x8004db02	-4.45907e-40
64	0xbd0c0375	-0.034182984
65	0x8001e31c	-1.73307e-40
66	0x800663ed	-5.8686e-40
67	0xbb561414	-0.0032665776
68	0xb6ae263b	-5.1900547e-06
69	0x000bb10e	1.073706e-39
70	0xbcb00664	-0.021487422
71	0x3dc2477d	0.094862916
72	0xbda15c8e	-0.078789815
73	0x8001e414	-1.73655e-40
74	0x3cbc47b4	0.02298341
75	0x800c11ee	-1.108458e-39
76	0x3969bb6a	0.00022290429
77	0x3d1c1bf5	0.0381126
78	0x3cb4d081	0.022072079
79	0x994f5e32	-1.0720672e-23
80	0x800d08e6	-1.197054e-39
81	0x80368052	-5.00515e-39
82	0x2eb1963e	8.0757165e-11
83	0x00067ee9	5.9654e-40
84	0x103acd2e	3.6840097e-29
85	0x80004b5b	-2.7032e-41
86	0x0005d87a	5.36835e-40
87	0x0008d732	8.11882e-40
88	0x0000d5c0	7.6679e-41
89	0x000c2cc1	1.11808e-39
90	0x000bcbda	1.083319e-39
91	0xab1aceca	-5.499877e-13
92	0xaa5064c7	-1.8509075e-13
93	0x00017411	1.33472e-40
94	0xaa513df3	-1.8584422e-13
95	0x800a7a72	-9.6228e-40
96	0x8d44a1fa	-6.0592135e-31
97	0xad7fdf02	-1.45445895e-11
98	0xab7c496c	-8.963028e-13
99	0x00024464	2.08205e-40

model.mp.layer0.layer.model.lin_l.bias f4 [10]
0	0xbe8a629b	-0.27028355
1	0xb3c77ac5	-9.288991e-08
2	0xb611fd39	-2.1754079e-06
3	0xbc9a6aa0	-0.01884967
4	0x3df46c2b	0.11934694
5	0xbc81407e	-0.015777823
6	0xbbfcf2b9	-0.0077193645
7	0xbd80ccca	-0.062890604
8	0xb1186780	-2.2177744e-09
9	0xabd4bf4b	-1.51166e-12

model.mp.layer0.layer.model.lin_r.weight f4 [10, 10]
0	0x3e48d01e	0.1961064
1	0xbe852ac6	-0.26009196
2	0x3e95538c	0.29165304
3	0x80befcfd	-1.75395e-38
4	0xbe4aa1ab	-0.19788234
5	0x000585eb	5.07218e-40
6	0xb8fb3835	-0.00011979082
7	0x3dc9cfc8	0.09854084
8	0x3e371779	0.17880048
9	0x8007b8b7	-7.09112e-40
10	0x1830902d	2.2820257e-24
11	0x0003f300	3.62678e-40
12	0xb0adc6cf	-1.2643911e-09
13	0x0008bbd6	8.02067e-40
14	0xab1adbe0	-5.501693e-13
15	0x0003bd94	3.43514e-40
16	0x0007f2ef	7.29997e-40
17	0x9b3f40e6	-1.582012e-22
18	0x06a99a00	6.379702e-35
19	0x0001bda4	1.59866e-40
20	0x00027930	2.27145e-40
21	0xb4d2c7b4	-3.926085e-07
22	0x80052ab7	-4.745e-40
23	0x00255375	3.427852e-39
24	0x19581e3b	1.1173043e-23
25	0x80020773	-1.86343e-40
26	0x00085ec1	7.68675e-40
27	0xab579020	-7.658336e-13
28	0x8a7f2c96	-1.2286189e-32
29	0x800aa9bc	-9.79244e-40
30	0x00040f2a	3.72782e-40
31	0xb3811019	-6.009959e-08
32	0xbc3c64f5	-0.011498679
33	0x0004292a	3.82109e-40
34	0xaf0777fa	-1.2320803e-10
35	0x80057e83	-5.04561e-40
36	0x800ab5d8	-9.83588e-40
37	0xb610edf4	-2.159618e-06
38	0xbc9816ee	-0.018565621
39	0x00067a20	5.94823e-40
40	0xbcff871d	-0.031192357
41	0x3f1191c2	0.56863034
42	0x3c2f79d0	0.010710195
43	0x0005f139	5.45712e-40
44	0x3e468378	0.19386089
45	0x0005b23b	5.23115e-40
46	0x3cbfd167	0.02341528
47	0x3e1a382e	0.15060493
48	0xbd24fed2	-0.040282078
49	0x15c55331	7.969892e-26
50	0x80037634	-3.1791e-40
51	0x16c623b6	3.2011162e-25
52	0xbc0b2d2a	-0.008494655
53	0x8007e2b9	-7.24181e-40
54	0x1cdcbf01	1.4607752e-21
55	0x800bb965	-1.076697e-39
56	0x00956634	1.3720153e-38
57	0x19f81e15	2.5654749e-23
58	0xbc7b8b9b	-0.015353109
59	0x80027528	-2.25699e-40
60	0x3aff6ba7	0.0019487039
61	0x0906525a	1.6168385e-33
62	0x3ba8a59a	0.0051466944
63	0x0005fa89	5.49053e-40
64	0xbcb7d383	-0.022439724
65	0x0003ef78	3.61412e-40
66	0x80018979	-1.41151e-40
67	0xbbcafcaa	-0.0061946707
68	0xb72596a6	-9.869842e-06
69	0x0003eedb	3.61192e-40
70	0xbd8aaf01	-0.067716606
71	0x3eb09e2f	0.34495685
72	0xbc9ee603	-0.019396788
73	0x80084747	-7.60253e-40
74	0x3d775e57	0.060392704
75	0x00035e98	3.0944e-40
76	0x3b8689a7	0.004105765
77	0x3e379a43	0.1792994
78	0x3cb923e1	0.022600116
79	0x984aaae4	-2.6194166e-24
80	0x800ae6a8	-1.001099e-39
81	0xaafc301a	-4.479757e-13
82	0x0006650e	5.87265e-40
83	0x000bfdcb	1.101234e-39
84	0xa0b30f7c	-3.0334026e-19
85	0x8001f83e	-1.80888e-40
86	0x0007c81a	7.14631e-40
87	0xa2d2a22f	-5.7092333e-18
88	0x00e84b87	2.1332929e-38
89	0x8004a675	-4.27056e-40
90	0x800bddad	-1.089713e-39
91	0xab19b316	-5.460505e-13
92	0xad0c29f9	-7.9673984e-12
93	0x00061ee6	5.62097e-40
94	0xa8dacc58	-2.4291482e-14
95	0x8004a9d0	-4.28259e-40
96	0x8f20d13f	-7.9289084e-30
97	0xa9003864	-2.847062e-14
98	0xac03f7ac	-1.8753705e-12
99	0x0001af40	1.54703e-40

model.post_mp.layer_post_mp.model.0.model.weight f4 [1, 10]
0	0x3f9387a9	1.1525775
1	0xbf54aa18	-0.8307204
2	0x3f90aaf5	1.1302172
3	0x359c9705	1.1666858e-06
4	0xbf6490a9	-0.89283234
5	0x9625aeda	-1.3383767e-25
6	0x3cb5add9	0.022177624
7	0xbf830145	-1.0234762
8	0x3fcd4c0b	1.6038831
9	0xa957302a	-4.7781366e-14

exp_avg f4 [10, 1]
0	0x39909b65	0.00027581598
1	0xbc9530cd	-0.018211747
2	0x3c5c964c	0.013463568
3	0xaadefcdc	-3.9610578e-13
4	0xbbf020fd	-0.0073281513
5	0x9b8e17ed	-2.350739e-22
6	0xb75488db	-1.2668049e-05
7	0x3c5534ca	0.013013074
8	0xbafdb1e9	-0.001935539
9	0xafe1a6ba	-4.1045728e-10

exp_avg_sq f4 [10, 1]
0	0x3901803a	0.00012350167
1	0x3d1da3aa	0.03848616
2	0x3b1f3203	0.0024291284
3	0x30c30f94	1.4192545e-09
4	0x3b7fbdff	0.0039023159
5	0x2fe9f82a	4.2558784e-10
6	0x3608796c	2.0336256e-06
7	0x3b110a52	0.0022131396
8	0x3a178c7e	0.0005781128
9	0x314e9f8a	3.0067633e-09

exp_avg f4 [10]
0	0xb991b89c	-0.000277941
1	0xbca4b94b	-0.020107886
2	0x3c5e8257	0.01358088
3	0xa35e3c99	-1.2047476e-17
4	0xbbba7d11	-0.0056911786
5	0xb21f8afa	-9.286618e-09
6	0xb74db490	-1.2260993e-05
7	0x3c78cc0c	0.015185367
8	0xba0877c6	-0.0005205836
9	0x99550d55	-1.1014534e-23

exp_avg_sq f4 [10]
0	0x3906cc60	0.00012855371
1	0x3d3658e0	0.04451835
2	0x3b2d2398	0.002641892
3	0x303e2d5a	6.9186046e-10
4	0x3b39564b	0.0028280194
5	0x31a6607e	4.8422057e-09
6	0x3614485e	2.2095842e-06
7	0x3b383a0c	0.002811077
8	0x3ac19956	0.0014770429
9	0x2f74203e	2.2203125e-10

exp_avg f4 [10, 10]
0	0x3880b1fb	6.136667e-05
1	0x3c8762f3	0.016526675
2	0x3b8b2877	0.004246767
3	0x80000154	-4.76e-43
4	0x3bbfff22	0.0058592716
5	0x800000ea	-3.28e-43
6	0x364e1a52	3.0711712e-06
7	0x3c12fe79	0.008971804
8	0x3c7e266e	0.015512092
9	0x9228efaf	-5.3306886e-28
10	0x8da4c1a4	-1.0153898e-30
11	0x00000023	4.9e-44
12	0xaa1a3286	-1.3695477e-13
13	0x000000cd	2.87e-43
14	0xa603d2f6	-4.573566e-16
15	0x00000019	3.5e-44
16	0x000000f4	3.42e-43
17	0x9921bbf1	-8.361459e-24
18	0x0000005e	1.32e-43
19	0x80000055	-1.19e-43
20	0x0000002c	6.2e-44
21	0x00001ee4	1.1081e-41
22	0x8000018a	-5.52e-43
23	0x800000f4	-3.42e-43
24	0x0000014e	4.68e-43
25	0x0000000f	2.1e-44
26	0x800000ea	-3.28e-43
27	0x80000005	-7e-45
28	0x00000090	2.02e-43
29	0x000000b9	2.59e-43
30	0x00000022	4.8e-44
31	0xb6c5b60f	-5.892252e-06
32	0xb628edef	-2.5172446e-06
33	0x800000a5	-2.31e-43
34	0xb576b730	-9.1908714e-07
35	0x80000054	-1.18e-43
36	0x80000158	-4.82e-43
37	0xb6461d1c	-2.9521243e-06
38	0xb6fdae22	-7.5602593e-06
39	0x00000181	5.4e-43
40	0xb8e45d76	-0.00010889296
41	0x3b0b3f1a	0.0021247328
42	0x39bceafc	0.0003603323
43	0x8000005e	-1.32e-43
44	0x3a19be4c	0.0005864843
45	0x00000ff4	5.723e-42
46	0x374a689d	1.2064495e-05
47	0x3a73c5cd	0.0009299189
48	0x39a3bd27	0.00031230712
49	0x11a4d752	2.600734e-28
50	0x00000145	4.55e-43
51	0xb6a1bff3	-4.8205197e-06
52	0xb56e28ea	-8.8721447e-07
53	0x00000036	7.6e-44
54	0xb50c9d66	-5.238311e-07
55	0x80000005	-7e-45
56	0x80000073	-1.61e-43
57	0xb5f45ae0	-1.8205865e-06
58	0xb67026f7	-3.5785467e-06
59	0x000001a8	5.94e-43
60	0xb3a5a199	-7.712806e-08
61	0x31aa7d09	4.961866e-09
62	0x363cc701	2.8130019e-06
63	0x800000a4	-2.3e-43
64	0xb791ce39	-1.7381377e-05
65	0x80000037	-7.7e-44
66	0x800000cd	-2.87e-43
67	0xb5e03b9b	-1.6706648e-06
68	0xb1407cf1	-2.8010698e-09
69	0x00000177	5.25e-43
70	0xb735ed6d	-1.0843721e-05
71	0xb994ee94	-0.00028406514
72	0x3a5b90e3	0.0008375777
73	0x80000040	-9e-44
74	0xb8b0e114	-8.434258e-05
75	0x80000194	-5.66e-43
76	0x33f0d509	1.1214622e-07
77	0xb93edfcb	-0.00018203181
78	0x39e9023a	0.00044442882
79	0x91aa2bdf	-2.6848308e-28
80	0x800001a9	-5.96e-43
81	0x800001ef	-6.94e-43
82	0x2954d4dc	4.7258082e-14
83	0x000000cd	2.87e-43
84	0x0b8aae76	5.3418166e-32
85	0x80000005	-7e-45
86	0x000000c2	2.72e-43
87	0x0000011d	4e-43
88	0x00000033	7.1e-44
89	0x0000018b	5.54e-43
90	0x0000018a	5.52e-43
91	0x2735373f	2.5148745e-15
92	0x2651e8bf	7.282687e-16
93	0x00000036	7.6e-44
94	0x267e3e57	8.820844e-16
95	0x8000014f	-4.7e-43
96	0x8a03b632	-6.341688e-33
97	0x26813fd0	8.96847e-16
98	0x272c1f1f	2.3886666e-15
99	0x0000004a	1.04e-43

exp_avg_sq f4 [10, 10]
0	0x3570d90c	8.972281e-07
1	0x3b560ecd	0.003266263
2	0x3a24f164	0.00062920735
3	0x2833f8ae	9.99042e-15
4	0x39cdfae7	0.00039287584
5	0x2dba18f0	2.1156826e-11
6	0x34baa310	3.4763843e-07
7	0x3a7bbdad	0.0009603154
8	0x3b110d00	0.0022132993
9	0x2d15c0b4	8.512458e-12
10	0x2f935bdc	2.6804414e-10
11	0x2ee499b1	1.0395541e-10
12	0x30ef2479	1.7399905e-09
13	0x2ea1e838	7.362683e-11
14	0x30881d78	9.903678e-10
15	0x2805cbbc	7.427161e-15
16	0x2f0530e7	1.2113653e-10
17	0x2fe717aa	4.203547e-10
18	0x2e9afcc7	7.0480115e-11
19	0x2bfb9299	1.7875312e-12
20	0x2e5bd45c	4.9983448e-11
21	0x2f1814c4	1.3831697e-10
22	0x2d76e525	1.4034361e-11
23	0x2a26d5c6	1.481793e-13
24	0x2d59565f	1.23542e-11
25	0x289c9b7a	1.7386906e-14
26	0x2e680744	5.2757146e-11
27	0x2e56cb84	4.8838725e-11
28	0x2d9e8678	1.8022236e-11
29	0x2ed8d929	9.861118e-11
30	0x2eae6ed3	7.93229e-11
31	0x33000798	2.980923e-08
32	0x3216af67	8.771031e-09
33	0x2d95d5ee	1.7034343e-11
34	0x317dda2b	3.694036e-09
35	0x299d4489	6.9840895e-14
36	0x2c7b5a25	3.5719286e-12
37	0x322e2ade	1.013788e-08
38	0x336caf9e	5.5107755e-08
39	0x28cc37fc	2.2672829e-14
40	0x360a37b2	2.0596021e-06
41	0x3b1afc1b	0.0023648802
42	0x3a388f34	0.0007040382
43	0x2c2f027e	2.487038e-12
44	0x399d873e	0.00030046137
45	0x2f14154b	1.3468086e-10
46	0x33fe7fd0	1.1851046e-07
47	0x3a37a72b	0.0007005806
48	0x3b149a1b	0.0022674862
49	0x2ee9c7ef	1.06311286e-10
50	0x2a8e78d1	2.53081e-13
51	0x33f36ddd	1.1335553e-07
52	0x32a17bb0	1.8799113e-08
53	0x2eb24010	8.1058826e-11
54	0x3267d142	1.3493549e-08
55	0x290e1775	3.155068e-14
56	0x2a560f5e	1.901235e-13
57	0x330f87d5	3.341832e-08
58	0x33995a52	7.141047e-08
59	0x2cf8380b	7.054806e-12
60	0x323c1306	1.0947366e-08
61	0x31d9d7c1	6.3400596e-09
62	0x338556eb	6.2091054e-08
63	0x2ebe9b65	8.667803e-11
64	0x33bd0145	8.801229e-08
65	0x2e517c43	4.7631465e-11
66	0x2b2ae590	6.0714715e-13
67	0x335440eb	4.941914e-08
68	0x31ace1dd	5.0315365e-09
69	0x2dc2e9b4	2.2159032e-11
70	0x349871b2	2.839493e-07
71	0x3b36d2ea	0.002789671
72	0x3a3960d6	0.00070716196
73	0x2d9d8022	1.7905736e-11
74	0x39acb1da	0.00032938906
75	0x2e6e2df1	5.415574e-11
76	0x3528583a	6.2713264e-07
77	0x3a577cfe	0.00082202244
78	0x3b1facb2	0.002436441
79	0x2c5c4278	3.1300778e-12
80	0x2ef7c98a	1.126806e-10
81	0x27c4147b	5.4423133e-15
82	0x30cc1919	1.4850087e-09
83	0x2de94588	2.6519911e-11
84	0x2f893067	2.4954547e-10
85	0x2b0b5a47	4.9508005e-13
86	0x2d3dcc82	1.0788816e-11
87	0x2ebc159a	8.5530874e-11
88	0x2f0d6f76	1.2863474e-10
89	0x2dc2116f	2.2062989e-11
90	0x2ec6c301	9.038637e-11
91	0x2ec4ab6e	8.9435e-11
92	0x2e92027c	6.6397526e-11
93	0x2aba3572	3.3077322e-13
94	0x2ed3eadb	9.636888e-11
95	0x2d7f66d6	1.4517906e-11
96	0x2e1c4e6c	3.5539946e-11
97	0x28cdfce4	2.2869246e-14
98	0x2e063a95	3.0520104e-11
99	0x2dd485d3	2.416104e-11

exp_avg f4 [10]
0	0x3d00ad8a	0.0314155
1	0xae5f3e93	-5.0759907e-11
2	0xb0a73b5f	-1.2167723e-09
3	0xb71ff20b	-9.5334935e-06
4	0x3b7c32d0	0.0038482435
5	0xb70554ce	-7.947163e-06
6	0xb682cb05	-3.8979365e-06
7	0x3ab5f1b6	0.001388124
8	0xabb1e0b2	-1.2638972e-12
9	0x27b2660a	4.9515556e-15

exp_avg_sq f4 [10]
0	0x3c4de9fa	0.012567991
1	0x31845c47	3.8521963e-09
2	0x31313f24	2.5792781e-09
3	0x34486c08	1.8665753e-07
4	0x3c2dc1b2	0.010605263
5	0x34f0889c	4.480288e-07
6	0x3486c681	2.5103876e-07
7	0x3c473d91	0.012160675
8	0x31091b30	1.9951578e-09
9	0x2e4a30a7	4.5972694e-11

exp_avg f4 [10, 10]
0	0x38ce3e06	9.834398e-05
1	0x3a7f7393	0.00097447
2	0x3c448967	0.01199565
3	0x80001e8f	-1.0962e-41
4	0x3a1af638	0.0005911323
5	0x000000af	2.45e-43
6	0xb38149a4	-6.020426e-08
7	0x3a6f0f6e	0.00091194257
8	0x3cf00de0	0.029303491
9	0x800000f5	-3.43e-43
10	0x133380a4	2.2656401e-27
11	0x0000007d	1.75e-43
12	0xab49a232	-7.1634636e-13
13	0x00000126	4.12e-43
14	0xa5c36ae9	-3.3899553e-16
15	0x0000007c	1.74e-43
16	0x000000ff	3.57e-43
17	0x962574e3	-1.3365477e-25
18	0x0205d10a	9.831288e-38
19	0x00000040	9e-44
20	0x0000004b	1.05e-43
21	0xaf76dbf0	-2.2451707e-10
22	0x800000ae	-2.44e-43
23	0x00000db0	4.91e-42
24	0x133a8eda	2.3546932e-27
25	0x8000004a	-1.04e-43
26	0x00000109	3.71e-43
27	0xa61bcca3	-5.405376e-16
28	0x055b66e1	1.03162264e-35
29	0x00000121	4.05e-43
30	0x00000086	1.88e-43
31	0xae6680da	-5.241039e-11
32	0xb6c69fe8	-5.9194754e-06
33	0x00000087	1.89e-43
34	0xa96fa739	-5.3213703e-14
35	0x800000af	-2.45e-43
36	0x80000162	-4.96e-43
37	0xb0d32e19	-1.5365372e-09
38	0xb71db8b4	-9.400934e-06
39	0x000000cd	2.87e-43
40	0xb7831397	-1.562554e-05
41	0xb95afa8c	-0.00020883436
42	0x3ad6c5dc	0.0016385871
43	0x000000c3	2.73e-43
44	0x35c275bb	1.448839e-06
45	0x000000c2	2.72e-43
46	0x3746373a	1.1814578e-05
47	0xb947a2c7	-0.00019038758
48	0x3b6ef585	0.003646226
49	0x90878ddf	-5.34667e-29
50	0x80000072	-1.6e-43
51	0x11deaa85	3.5130515e-28
52	0xb690a278	-4.3104483e-06
53	0x800000ff	-3.57e-43
54	0x17d7a59b	1.3935854e-24
55	0x80000180	-5.38e-43
56	0x8000483c	-2.5913e-41
57	0x94da89f3	-2.2066786e-26
58	0xb701e5f3	-7.742538e-06
59	0x80000054	-1.18e-43
60	0x3586e8e2	1.0051556e-06
61	0x039d308c	9.2387765e-37
62	0x362f766c	2.6145963e-06
63	0x000000c3	2.73e-43
64	0xb73f72e1	-1.14112345e-05
65	0x00000086	1.88e-43
66	0x80000036	-7.6e-44
67	0xb65562fd	-3.1797092e-06
68	0xb1b76f37	-5.3386446e-09
69	0x0000007d	1.75e-43
70	0xb80ea7b2	-3.4011617e-05
71	0x39196643	0.00014629312
72	0x39e64ddf	0.00043927037
73	0x80000112	-3.84e-43
74	0x387567bc	5.8509162e-05
75	0x00000069	1.47e-43
76	0x360a54a0	2.061286e-06
77	0x385a69e4	5.207387e-05
78	0x3a59c9c9	0.00083079614
79	0x0f4d6204	1.01261575e-29
80	0x8000016c	-5.1e-43
81	0xa59e25eb	-2.7434325e-16
82	0x000000d6	3e-43
83	0x0000018a	5.52e-43
84	0x9b87ccce	-2.2466228e-22
85	0x80000041	-9.1e-44
86	0x000000ff	3.57e-43
87	0x9d9716f6	-3.999311e-21
88	0x8000261c	-1.3671e-41
89	0x80000091	-2.03e-43
90	0x8000018a	-5.52e-43
91	0x2505a447	1.159157e-16
92	0x26ee75bd	1.654648e-15
93	0x000000c3	2.73e-43
94	0x24eabf36	1.0180525e-16
95	0x80000091	-2.03e-43
96	0x89158af1	-1.8000553e-33
97	0x24e52339	9.937259e-17
98	0x27a4fa7c	4.579072e-15
99	0x00000037	7.7e-44

exp_avg_sq f4 [10, 10]
0	0x36375226	2.7316942e-06
1	0x37d5f31b	2.5504783e-05
2	0x3b4fc9f3	0.0031706064
3	0x2f179a50	1.3788193e-10
4	0x3766bdfe	1.3753304e-05
5	0x2d3325b7	1.0183346e-11
6	0x35748e9d	9.1104613e-07
7	0x37920285	1.740573e-05
8	0x3c1927f1	0.009347902
9	0x2c486343	2.847681e-12
10	0x2fafbc98	3.1966318e-10
11	0x2aaf81f0	3.1176407e-13
12	0x3113e139	2.151934e-09
13	0x2aa60a6f	2.9494763e-13
14	0x30857d4e	9.712637e-10
15	0x2eb87b07	8.389205e-11
16	0x2a9be827	2.769462e-13
17	0x2fc77dae	3.628719e-10
18	0x2f40e7a8	1.7544599e-10
19	0x2eef7529	1.08892735e-10
20	0x2ede260e	1.0102151e-10
21	0x310369a9	1.912307e-09
22	0x2d8b4947	1.5835012e-11
23	0x2f13a4c1	1.3428104e-10
24	0x2f655177	2.0856371e-10
25	0x2c208f55	2.2816933e-12
26	0x2a2222b8	1.4400536e-13
27	0x300e6516	5.180295e-10
28	0x2b3509d9	6.4317784e-13
29	0x2f0f9e68	1.3062051e-10
30	0x2dd6dd1c	2.4427176e-11
31	0x2fc0bb7f	3.505782e-10
32	0x33021b8f	3.0293048e-08
33	0x2dec447b	2.6860505e-11
34	0x2f125e71	1.3312175e-10
35	0x2cbe5bef	5.4103315e-12
36	0x2b914349	1.0321545e-12
37	0x300b02fe	5.057216e-10
38	0x342541f0	1.539081e-07
39	0x2aa4e70b	2.929257e-13
40	0x36e28ecd	6.751949e-06
41	0x3765e93d	1.3703769e-05
42	0x3b3dde65	0.0028971669
43	0x29a8c772	7.495297e-14
44	0x37bfc232	2.2859404e-05
45	0x2dd866be	2.4601984e-11
46	0x349e39f9	2.9471974e-07
47	0x377cec01	1.5075319e-05
48	0x3bfaad4a	0.007650052
49	0x2ca8c451	4.7966427e-12
50	0x2a3f475c	1.6988966e-13
51	0x2ecbef7c	9.273912e-11
52	0x33f4402a	1.1373807e-07
53	0x2c9b524f	4.414503e-12
54	0x2f5aec80	1.9911006e-10
55	0x2e03fc27	3.0009908e-11
56	0x2f1d35f1	1.429823e-10
57	0x2f3bf2c9	1.7093806e-10
58	0x34b250cd	3.3213874e-07
59	0x2d52e67c	1.1988296e-11
60	0x32e5af6a	2.6738878e-08
61	0x2f014c8c	1.1759677e-10
62	0x33d2dd9c	9.8191975e-08
63	0x275752c1	2.9882105e-15
64	0x33baf2a5	8.705437e-08
65	0x2f004f3b	1.166968e-10
66	0x2eb38148	8.1629425e-11
67	0x331f50dd	3.7093617e-08
68	0x31a439d6	4.7796034e-09
69	0x2d222ce6	9.218603e-12
70	0x359e31f0	1.1786451e-06
71	0x37bba054	2.2366796e-05
72	0x3b515ddc	0.0031946814
73	0x2ec1c108	8.810913e-11
74	0x36ae9576	5.2030036e-06
75	0x2c2c1242	2.4452805e-12
76	0x35c1403e	1.4398317e-06
77	0x373f0203	1.13849555e-05
78	0x3c11ef11	0.0089070955
79	0x26f6b2b0	1.7118112e-15
80	0x2b3b192a	6.647067e-13
81	0x308b4b49	1.0134978e-09
82	0x2e0069d1	2.9197814e-11
83	0x2c18bb66	2.1704526e-12
84	0x2ff9fa95	4.5470885e-10
85	0x2ee1fd13	1.02767704e-10
86	0x2d4887a7	1.1398805e-11
87	0x3011cf49	5.304526e-10
88	0x2f1c721b	1.4228656e-10
89	0x2d358797	1.0318766e-11
90	0x2e6c2a48	5.369774e-11
91	0x2a6d25da	2.1062961e-13
92	0x2a62ec69	2.0154854e-13
93	0x2d01b0ec	7.372086e-12
94	0x2ea620e8	7.5546513e-11
95	0x2e81100d	5.869092e-11
96	0x2e4160ac	4.396898e-11
97	0x2e6710b3	5.253815e-11
98	0x2de10dc6	2.5585655e-11
99	0x2eaadd4b	7.7700145e-11

exp_avg f4 [1, 10]
0	0xbb66adf6	-0.0035198904
1	0xb9c1c15c	-0.00036955893
2	0xb893bf06	-7.045087e-05
3	0x306b1f37	8.553686e-10
4	0x3a9e3176	0.0012069184
5	0x8f8db7a8	-1.3974415e-29
6	0x373d6ccb	1.1290608e-05
7	0x3adaedc8	0.0016702944
8	0xba66d821	-0.00088060094
9	0x2513d6c2	1.282298e-16

exp_avg_sq f4 [1, 10]
0	0x39a6609e	0.00031733973
1	0x39ac487a	0.00032860396
2	0x38ee4122	0.00011360856
3	0x30001ef2	4.6610105e-10
4	0x3a3d0b5b	0.000721147
5	0x2e2cb49d	3.926869e-11
6	0x33a4ed79	7.680041e-08
7	0x3a044083	0.00050450134
8	0x390a7994	0.00013205997
9	0x2e08c271	3.109552e-11
